models/model_KNet_para.pt (torch, 407582 bytes, 20 tensors)

weight f4 [320, 4]
000000 76 07 90 be 1c 80 9c be 91 62 ab be 25 1e 0e 3f
       -0.28130692 -0.3056649 -0.33473638 0.55514747
000010 da 62 52 3d 5a f6 06 be c6 68 16 3c fa 3c 2b 3c
       0.051363803 -0.13179913 0.009180253 0.01045155
000020 85 ad d0 be bd 6e a9 3c ba 7a ab be d7 af d0 3e
       -0.40757385 0.020682687 -0.3349207 0.40759155
000030 fd c2 27 be 7d 9c 5e bd 22 9f 2f be 8b b6 61 bf
       -0.16382976 -0.054348458 -0.17150548 -0.88169163
000040 5a 78 f1 3d 90 8d e1 bd 40 b9 95 3f 4d 1f 89 3d
       0.11790533 -0.11013329 1.1697159 0.06695423
000050 ef c2 96 3e bc 91 96 3e 99 05 bc 3e 9a 47 9c bf
       0.29445598 0.29408062 0.3672302 -1.2209351
000060 03 bc 91 3e fd ba b6 3d 55 29 33 3f 8b 7c 7d 3f
       0.28463754 0.08922384 0.6998494 0.9901816
000070 34 14 93 3e 25 f8 74 3d b2 06 00 bf ec 2c 2e 3f
       0.2872635 0.05980696 -0.50010216 0.68037295
000080 9a 4b 50 3c 0c fe 8f bc 61 fc a1 bf 70 56 6b be
       0.012713337 -0.017577194 -1.2655145 -0.22982192
000090 55 f4 1f 3d a3 2f ac 3e 9c 96 2d 3f 36 ab 3b bf
       0.039051373 0.33630094 0.67807937 -0.7330812
0000a0 50 04 ec 3e e9 a6 1b bf f1 b0 00 3f 38 a4 77 3e
       0.4609704 -0.6080156 0.5026999 0.24183738
0000b0 cf b6 33 3e 17 00 a0 3d db bd 21 be 26 3d 61 3e
       0.17550205 0.07812517 -0.1579508 0.21995983
0000c0 a6 f7 10 bf 95 07 28 3f 11 41 3c 3f c3 b6 4a bf
       -0.5662788 0.6563657 0.73536783 -0.7918512
0000d0 58 8c b3 bd 5e 59 8b be 4b 94 74 bf ae df 4e bf
       -0.08767003 -0.2721662 -0.9553878 -0.8081006
0000e0 8f 77 88 3e c3 cc d9 bc af a7 d8 be 20 a2 33 3f
       0.26653716 -0.026586896 -0.42315432 0.7016926
0000f0 2f 43 ad bd 7c b9 fc bd 0f 66 c3 3d 40 dd 4c 3e
       -0.0846008 -0.12340066 0.095409505 0.20006275
000100 4a 38 d4 bd 01 6f 03 bd 5c cb 97 be ae 07 3c bd
       -0.10362299 -0.032088283 -0.29647338 -0.04590576
000110 34 71 19 bf 39 a3 dc bd 8a 85 e2 bc fe d6 09 3f
       -0.5993836 -0.1077332 -0.027651567 0.5384368
000120 55 d5 37 3e 10 6d 12 3e c2 f6 1e 3f 9c 0a b5 3f
       0.17952473 0.14299417 0.6209527 1.4143863
000130 6c f4 dd bd 8e 43 6b be 5b df 3e bf 73 b1 56 bf
       -0.108376354 -0.22974989 -0.74559563 -0.83864516
000140 74 07 fa be 60 3c a7 3d 8e 90 20 bf 75 32 65 3f
       -0.4883381 0.081658125 -0.6272057 0.89530116
000150 60 2d 07 be d7 b2 d0 3d b0 02 1a bf 07 97 6f 3d
       -0.13200903 0.10190361 -0.6016035 0.05849364
000160 7f b5 a4 be 0c b5 08 bf e9 6b 49 bf e8 35 2d bf
       -0.3216972 -0.53401256 -0.7868028 -0.6766038
000170 18 38 91 b9 0e 5f 9c 3a 93 87 c2 bd bc 71 3c 3e
       -0.00027698348 0.0011930184 -0.09498515 0.18402761
000180 ed 60 86 3d ca 9f af bd 35 25 42 bf 3e cd 0d bf
       0.06561456 -0.08575399 -0.75838023 -0.553913
000190 3f 14 46 be 68 9e 29 be cf 54 b1 3c bd 4b b2 bd
       -0.19343661 -0.16564333 0.021646885 -0.08705852
0001a0 e1 9c d7 be 28 0f e5 3c 4d eb 9a 3f 97 d1 09 bf
       -0.42111877 0.027961329 1.2103058 -0.53835434
0001b0 e8 68 fc be 47 17 80 3e 60 b8 56 3f ab 02 91 bd
       -0.49298787 0.2501776 0.83875084 -0.07080587
0001c0 62 30 8f 3d 35 59 01 3c 8f f3 af be b2 22 93 bf
       0.0699165 0.007894804 -0.34365508 -1.1494963
0001d0 30 0f 1f be 23 2b c3 bd 39 30 50 3f c8 80 10 3d
       -0.15533137 -0.09529712 0.8132358 0.035279065
0001e0 6c 27 b2 be 31 1a 6b be 68 6f 3d 3f e9 1d 0e 3e
       -0.34795702 -0.2295921 0.7399812 0.13878597
0001f0 6c 9c e3 be b6 86 49 3e f1 98 5d 3e 5a 8b 90 be
       -0.44455278 0.19680294 0.21640374 -0.28231317
000200 fa 45 dd be 65 0f a4 3e f4 4e f2 bd 7d 92 96 be
       -0.4321745 0.32042995 -0.11831465 -0.29408637
000210 e5 68 d9 3d 88 04 90 be 54 72 1a 3e 7e 01 aa be
       0.1061571 -0.28128457 0.15082675 -0.33204263
000220 b4 8e 0e be ae 66 94 bd ca 1f a3 3e 40 03 09 bf
       -0.13921624 -0.07246147 0.3186019 -0.53520584
000230 9f e4 6d 3e 50 56 91 3d 80 ba 63 3e fb fb 10 3f
       0.23231743 0.07096541 0.22239113 0.5663449
000240 cd b4 f2 3e b1 19 42 be 34 04 39 bf 9b f5 59 bf
       0.47403565 -0.18955113 -0.7227204 -0.8514039
000250 1f 28 db 3c 4f 7a c3 3d d3 1d d2 3f 86 c1 c4 be
       0.02675253 0.09544813 1.6415352 -0.38428897
000260 be a5 9e bd c0 47 30 be 8e dc 14 3f 09 39 2a 3f
       -0.077464566 -0.1721487 0.5814904 0.6649328
000270 d6 87 20 bf d1 df 3f be ec 8c 33 bf 9d a0 d9 be
       -0.6270727 -0.18737723 -0.70136905 -0.4250535
000280 23 82 08 3e b5 75 a6 3d 8c a1 76 3e 7f 5f f6 3e
       0.13330893 0.081279196 0.24085063 0.48119733
000290 a2 c1 0b bf 40 2f 16 3e da 1b 8d be da 01 25 3f
       -0.54592335 0.14666462 -0.27560312 0.6445595
0002a0 7c 75 b4 bd 22 d8 5e bd 26 a3 52 3f a0 bf 8c bf
       -0.08811471 -0.05440534 0.82280195 -1.0995979
0002b0 bf 06 dc be 67 7b b5 3d 65 31 06 3e 29 c7 89 3e
       -0.42973897 0.08861428 0.1310478 0.2690976
0002c0 03 47 8b 3e 23 d0 83 be ca 05 50 be 08 48 21 3e
       0.27202615 -0.25744733 -0.20314708 0.15750134
0002d0 52 87 dc 3d 87 c6 81 3e c1 a4 bc 3e d6 ea b7 3e
       0.10767998 0.25346777 0.36844447 0.35921353
0002e0 c3 6f ca 3c 15 2a 86 be de ff bb be 8e b9 eb bd
       0.024711495 -0.2620398 -0.3671865 -0.11510001
0002f0 0f d0 96 be 80 f2 ba 3c 3a ca 91 3e 81 28 3e 3f
       -0.2945561 0.022820711 0.284746 0.74280554
000300 d0 70 4c be 91 76 fc 3d d7 05 dd 3e 9e 9b 82 bf
       -0.1996491 0.12327302 0.43168518 -1.0203741
000310 e0 08 4c be 6f ff f9 3d 56 90 4e be 30 d8 23 be
       -0.1992526 0.12206923 -0.20172247 -0.16000438
000320 45 66 21 3e 9f b4 99 3d 82 e8 93 3b 20 87 52 bf
       0.15761669 0.07505154 0.004513801 -0.82237434
000330 44 8b a0 be 5b ff 67 be 21 da 2f be 61 7e 11 3e
       -0.3135625 -0.22656004 -0.17173053 0.14208366
000340 7c 52 3c be bf 7d 5e 3d c2 78 1c bf 46 27 d7 be
       -0.1839084 0.05431914 -0.6112176 -0.4202215
000350 24 ed 8a be 69 44 06 be 4c e3 56 be d0 b4 99 3d
       -0.2713405 -0.13112034 -0.20985144 0.0750519
000360 a6 fb e4 3d b2 b8 67 bc e3 db a6 3c 4e b9 ac 3d
       0.11180811 -0.014143156 0.020368522 0.084337816
000370 08 6f e8 3d 34 b7 ab 3e 91 c7 cb 3e 4b 0f 23 3f
       0.113493025 0.3353821 0.39800695 0.6369521
000380 d6 39 7e be 56 42 28 3e be b3 c1 3e e5 c2 0e bf
       -0.2482675 0.16431555 0.37832445 -0.55766135
000390 43 4e ce 3e 0e ac 26 bc 56 f0 f5 be 1b 4c a3 3f
       0.40294084 -0.010172857 -0.48034924 1.27576
0003a0 2b 83 70 be ce 9a a1 be db 32 bb 3e 7e da 0e 3f
       -0.23487537 -0.3156342 0.36562237 0.5580214
0003b0 d6 70 0c be 22 dc e4 3c 2b 8b 71 3e 25 4f 4d bc
       -0.13714918 0.027936999 0.23588245 -0.012531077
0003c0 15 8f 9b bd a7 a6 06 bd ac 19 53 bd 61 01 67 be
       -0.0759565 -0.032873776 -0.051538154 -0.2255912
0003d0 09 6c bb 3d bc 6f c1 3d 35 02 7a bf 3c 44 13 3f
       0.091514654 0.0944514 -0.9765962 0.5752599
0003e0 ab 3e a3 be 1e 96 27 bf 11 f1 b8 be 91 a4 06 be
       -0.3188375 -0.65463436 -0.3612142 -0.13148715
0003f0 ff 9c c9 3e 36 f5 c3 be 64 cf fa 3e 75 1b b6 bf
       0.3937759 -0.3827302 0.4898635 -1.4227129

bias f4 [320]
000000 11 67 e0 be cb a7 a5 be bc d0 cb bd 28 82 86 3e
       -0.43828633 -0.32354578 -0.09951922 0.26271176
000010 89 a2 55 3e 98 55 17 bf f5 78 30 be d6 57 1b be
       0.20862783 -0.5911498 -0.17233641 -0.15170226
000020 96 ed 22 3d 16 0d 58 be f5 b8 09 be 58 21 a2 bd
       0.03977736 -0.21098742 -0.13449462 -0.07916516
000030 67 25 bd be 3d 7a ed 3e 28 82 da bd 19 ad e0 be
       -0.36942598 0.46382323 -0.106693566 -0.43882063
000040 3a e8 32 3e 20 16 ad be 50 32 c3 bb 07 fc 34 be
       0.174714 -0.33805943 -0.0059569255 -0.17674266
000050 f9 9e c8 be 0d 6e c7 bb 85 29 42 be 56 c2 b8 3d
       -0.39183787 -0.006086117 -0.18961151 0.09021442
000060 26 a5 65 be f0 b3 8e bd f3 7a 8b be ab 16 b0 3e
       -0.2242628 -0.06967914 -0.2724224 0.34392294
000070 58 5c 40 bc c6 90 ab 3d 8a 82 e8 be 5f da 27 3c
       -0.0117407665 0.08377223 -0.45412093 0.010244935
000080 82 50 24 3d 8a c3 1e be 8a 1f 71 be f5 d5 5a be
       0.04011584 -0.1550428 -0.23547187 -0.2137068
000090 7c a0 7a be 50 24 fd 3d fb 5d cb be 81 c8 6e be
       -0.24475282 0.12360442 -0.3972014 -0.23318674
0000a0 c1 1f 30 3e ea 91 68 3e 65 61 11 3e 31 9d 7e bc
       0.17199613 0.22711912 0.1419731 -0.015540407
0000b0 1e d4 36 be e0 bd 10 3e cb 38 35 3d 3b 39 af be
       -0.17854354 0.14134932 0.044243615 -0.3422335
0000c0 12 72 5b 3d 66 05 ac bd a6 de b4 bd b8 3f d6 bd
       0.053575583 -0.08399467 -0.08831529 -0.10461372
0000d0 25 2a 06 3e df dc 04 bf 9e 8c 5c be cb d9 31 3e
       0.13102014 -0.5189952 -0.21538016 0.17368238
0000e0 f3 b7 87 bd ff 1d 8b be 10 d9 97 3c bc 77 ef be
       -0.066268824 -0.27171323 0.01853612 -0.46771038
0000f0 4a d9 1c 3e e2 d4 89 3e 5a 43 b0 be fe a9 41 3d
       0.15317264 0.2692023 -0.34426385 0.047281258
000100 d4 b7 68 be 39 e2 d4 bb f5 c4 18 be 4b 87 9b 3d
       -0.22726375 -0.0064966944 -0.14918883 0.075941645
000110 4d d0 a3 be be f3 bf be 2c eb 9e bd d5 eb 8c 3e
       -0.31994858 -0.37490648 -0.07759699 0.27523676
000120 4c df 5c 3e 69 88 b7 bc f8 76 db be f9 9d 62 be
       0.21569556 -0.022403913 -0.42864203 -0.22130574
000130 2d 70 9e 3e 68 25 a5 be 6c 41 d3 be 51 06 93 bd
       0.30944958 -0.322551 -0.4126085 -0.07178939
000140 d3 4f 05 bf 26 ea 17 bf dc 03 44 be f4 f5 c2 3d
       -0.5207493 -0.5934166 -0.19142097 0.09519568
000150 4f df 93 bd 46 9d 17 be 9d ee bd bb 56 00 d1 be
       -0.07220327 -0.14806089 -0.005796267 -0.4082057
000160 e0 2c d9 3d cd cf 0a bf 28 e9 90 3d 0c 07 28 be
       0.10604262 -0.5422333 0.07075721 -0.16408938
000170 1b 5d 9a 3d 70 c1 23 3e d8 ff 32 3e 78 de 0f 3e
       0.0753729 0.1599176 0.17480409 0.14049709
000180 1d 05 67 be 5c 56 2e be c9 b1 91 bc d9 17 aa be
       -0.22560544 -0.17025131 -0.01778497 -0.3322132
000190 4a 2b dd be cc 11 69 be d4 66 3e be c2 2d 4a be
       -0.4319709 -0.22760695 -0.18593913 -0.19744018
0001a0 5b 2e 31 3e b9 78 ba bd c4 54 b2 bd fa f0 07 be
       0.1730284 -0.09105057 -0.08707574 -0.13275519
0001b0 3a c6 ad be cb d0 12 bf 71 fc a1 3e 0a 0b 83 3e
       -0.33940297 -0.5734984 0.3163791 0.2559436
0001c0 69 18 3a 3e 94 30 bf be f4 67 bb 3d e4 f9 2d 3e
       0.18173374 -0.3734175 0.09150687 0.16989857
0001d0 20 5d a3 be 9b 14 bb be ee 36 9c bd c5 0a 21 3d
       -0.31906986 -0.36539158 -0.076276645 0.03931691
0001e0 ea 11 e0 be ba 38 e9 3d e8 4a 8c 3e 61 6f 66 3e
       -0.43763667 0.11387773 0.274009 0.22503425
0001f0 69 a9 b2 bd 00 37 8f be 7a 9f ef be 5f cb 05 be
       -0.08723719 -0.2797165 -0.46801358 -0.13065861
000200 b3 b7 9a be f7 b5 3a be 50 4e 0b be f0 3b 85 be
       -0.30218276 -0.18233477 -0.13604093 -0.2602229
000210 a1 f6 7c be 62 15 a4 be 07 f2 05 be c3 33 45 3e
       -0.24703456 -0.32047564 -0.13080607 0.19258027
000220 3b fd 0a bf f7 e4 82 be fa 23 e2 bd 31 dc 85 be
       -0.5429265 -0.2556531 -0.11042018 -0.26144555
000230 6e d8 37 be 61 cf 11 bf 7e 5e 2e 3e d4 b8 88 be
       -0.17953655 -0.5695706 0.17028233 -0.26703513
000240 78 71 ad 3e d9 4d 47 be 1a 89 00 be 0e 63 55 bc
       0.33875632 -0.1946329 -0.125523 -0.013024105
000250 a0 6e 30 be 5c 4e 69 3d ab 3c a2 3d 49 81 d3 be
       -0.172297 0.056959495 0.07921728 -0.41309574
000260 26 81 15 be 21 d3 6c be 6c 5b ef 3b a1 e3 a6 be
       -0.14600047 -0.23127414 0.0073045995 -0.32595542
000270 7f 59 90 be f4 3d ff 3d dc af d5 bd 91 eb 6e be
       -0.2819328 0.124629885 -0.10433933 -0.23332049
000280 fc 09 d8 3d 8e 99 90 be 9b 6e 9a 3e 92 60 a3 3d
       0.10548779 -0.28242153 0.3016251 0.07977404
000290 ff cf 09 be 8a c8 d3 3c 93 95 ae bd da 48 53 be
       -0.1345825 0.02585246 -0.08524623 -0.2063326
0002a0 ae a4 5a be 60 79 f8 bd f4 54 07 bf de 6b 10 bf
       -0.21351883 -0.121325254 -0.52864003 -0.5641459
0002b0 e7 bb 04 3e 1a ff e8 3c 1e da 5b be e6 32 32 3e
       0.12962304 0.028441954 -0.21469924 0.17402229
0002c0 18 06 a5 be 86 22 16 3d dc 61 dc be 3f 78 95 3d
       -0.32231212 0.036654018 -0.4304341 0.07298326
0002d0 8d 9a 40 be 22 8a 8b 3d d1 c2 03 3e 25 5a bf bd
       -0.18808956 0.06813456 0.12867285 -0.093433656
0002e0 42 6b e1 3d 83 94 31 be a0 8c 3e be b6 70 81 be
       0.11006786 -0.17341809 -0.18608332 -0.25281304
0002f0 39 b9 ea be 61 f6 df be 3d 8b d3 bd 3d 67 02 bf
       -0.4584444 -0.4374266 -0.10329292 -0.5093878
000300 95 fb e2 3d 04 5f ab be 2a 6e 64 bc 18 c9 8c be
       0.11083142 -0.3347093 -0.013942281 -0.27497172
000310 54 f9 72 3e be 9e 4e be ea 11 39 3e 06 c1 8f bd
       0.23727924 -0.20177743 0.1807324 -0.07019238
000320 7e c0 14 3e 10 f0 a5 be 90 5f b1 be 1a 47 f7 bc
       0.14526555 -0.32409716 -0.3464322 -0.030185271
000330 f1 ed 4e 3d 5d 74 6b bd b3 5c c0 be ff d7 cd bd
       0.050519887 -0.05748402 -0.37570724 -0.100509636
000340 2a dd ce be 24 cb ad 3d d3 6d 5b bc f9 a4 86 3e
       -0.4040311 0.084860116 -0.013392883 0.2629774
000350 07 3d 16 bf e1 7f 8a be d0 82 9b bc a4 8c 94 be
       -0.5868687 -0.2705069 -0.018983275 -0.2901355
000360 3d 1e 7c bc 94 fe 7b be da 49 05 bf 41 f0 98 be
       -0.015388069 -0.24608833 -0.52065814 -0.298708
000370 3a 34 09 bd 4b de 4d bd 78 15 0d 3d 21 fa a0 3e
       -0.033497073 -0.050260823 0.034444302 0.31440833
000380 69 28 0e bf 04 79 07 bf 00 5b 6f 3e 03 16 6e be
       -0.5553041 -0.5291903 0.23374557 -0.23250584
000390 33 ff 1b 3d 7a 20 1b 3e 9b cb 8e be de 5b 19 bc
       0.038085174 0.15149108 -0.27889714 -0.009360282
0003a0 e1 29 75 be 46 a8 2b be fa d9 69 be 80 5c 0e be
       -0.23941757 -0.1676341 -0.22837058 -0.13902473
0003b0 c2 ba fb be 6e 12 ab be 4c 56 07 bf 3b 61 87 3d
       -0.49165922 -0.33412498 -0.52866054 0.06610342
0003c0 96 0d 06 bf a6 20 39 3e b2 19 8c be a4 55 ff be
       -0.5236448 0.1807886 -0.27363354 -0.49870026
0003d0 1d ee ca 3d d6 cd ed bd 57 0a 7d 3e aa 39 8f be
       0.09908698 -0.11611526 0.24710976 -0.27973682
0003e0 c2 19 79 3a 4d c3 01 3e 82 9e 16 3e 4b fd 73 3d
       0.00095024344 0.12672158 0.14708903 0.05956773
0003f0 02 f2 28 3e 30 ef 8a be 06 24 ef 3d 47 c3 45 be
       0.16498569 -0.2713561 0.11676793 -0.19312774

weight_ih_l0 f4 [240, 320]
000000 d0 77 9d bc 21 01 9e ba a8 06 79 bd 1b 4a be bd
       -0.01922217 -0.001205478 -0.060797364 -0.09291478
000010 4a 58 4c bd 9d 4c f8 bc 79 9f d5 bc 41 81 02 bd
       -0.049888887 -0.03030997 -0.026077019 -0.031861547
000020 23 f8 bd bc ba cc 61 be 0c e7 d3 bd e0 72 a2 bd
       -0.02318961 -0.22050753 -0.10346803 -0.07932067
000030 fe f6 08 be 82 a1 da bc 08 18 15 be 33 fc 91 bc
       -0.1337547 -0.026688341 -0.14559948 -0.017820453
000040 22 b0 50 be cf 4b 33 bd 94 28 26 bd 71 73 10 bd
       -0.2037969 -0.04377347 -0.040566042 -0.035266344
000050 05 17 27 be 39 a7 b4 3a a7 37 3c be e3 fb 98 bd
       -0.16317375 0.0013782746 -0.18380605 -0.074699186
000060 a3 24 27 bd 6f f5 fe bd 9d 22 5e bd 0b b9 25 bd
       -0.040806424 -0.124491565 -0.05423223 -0.040459674
000070 fb 88 d4 bd ec 5e cf bc 7e f7 df bd d6 f5 2a be
       -0.103776895 -0.025313817 -0.10935877 -0.16695341
000080 b9 c4 55 be 72 60 92 bd d6 26 aa bd c7 2c 57 be
       -0.20875825 -0.07147302 -0.083081886 -0.21013175
000090 dd 91 42 be 30 88 09 be 2a 9a 05 be 1f 32 cb bd
       -0.19000955 -0.13430858 -0.1304709 -0.09921669
0000a0 b6 77 e4 bd fd 69 c3 bd 8c da 8a 3c 37 d4 28 bc
       -0.111556455 -0.095417 0.016949914 -0.010304502
0000b0 8c 21 24 be c5 8b 21 be 25 b8 1d be 88 ae 19 be
       -0.16028422 -0.15775974 -0.15402277 -0.15007985
0000c0 a9 f1 01 be 83 42 ee bd 46 26 cf bd 2a a9 80 bd
       -0.12689842 -0.1163378 -0.10114722 -0.062822655
0000d0 c2 87 51 be 9f f0 26 bd 45 08 2e be b6 b7 44 bd
       -0.20461944 -0.040756818 -0.16995342 -0.048026763
0000e0 7f 96 4d be ff b2 1f be 68 aa 3c be 6a f7 a5 bd
       -0.20076941 -0.15595625 -0.1842438 -0.08103831
0000f0 7e a7 5d be a8 a1 4d bb 6b fd 13 bd 1e cf f8 bd
       -0.21645924 -0.0031376872 -0.03613035 -0.121488795
000100 6d db 00 be 2a bc 0d be d4 9c 1b be eb 6e f4 bd
       -0.12583704 -0.1384131 -0.15196544 -0.119352184
000110 0e c2 f5 3c 30 28 d2 bd 2b c3 8b bd 68 eb b4 bd
       0.029999759 -0.102615714 -0.06824335 -0.08833963
000120 45 6b 6f bd 7d b5 24 bd c4 13 18 be 91 37 53 be
       -0.05845191 -0.040212143 -0.1485129 -0.20626666
000130 fe 1c 16 be 25 7e 8c 3d 0f fc e5 bd 32 90 4a be
       -0.14659497 0.06859998 -0.11229717 -0.19781569
000140 d0 fd 0c be 98 97 50 bd c2 1f 01 bc b3 51 2e be
       -0.13768697 -0.05092582 -0.007881107 -0.17023353
000150 0f 65 8f bd c6 33 4f bd 06 32 9e bd bd 66 c6 bc
       -0.07001697 -0.050586484 -0.07724385 -0.024218911
000160 88 c0 f9 bd 6e fc f3 3c f6 35 f4 bd bc f6 03 be
       -0.121949255 0.029783454 -0.11924355 -0.1288709
000170 cc 24 2d bd f5 1f 5a be 0d 9a 18 be cb d3 30 3c
       -0.04227142 -0.21301253 -0.14902516 0.010792683
000180 58 f6 e5 bd a6 1e 04 be ce 2a 2b be 3a e7 05 be
       -0.11228627 -0.12902316 -0.16715547 -0.13076487
000190 20 c1 0a be 9c a3 0f bc bf d4 44 be c1 85 e3 bd
       -0.13550234 -0.008767035 -0.19221781 -0.11109496
0001a0 ba 91 13 bd 69 ac fe bc a5 bf 77 bd 4c 5e 40 be
       -0.036027648 -0.031088071 -0.0604855 -0.18785971
0001b0 68 41 c3 bd 40 04 0d be 08 35 21 be 13 eb 02 be
       -0.095339596 -0.13771152 -0.15742886 -0.12784986
0001c0 2e da 01 be 67 fd 5a be 1a 15 62 be b6 01 58 be
       -0.12680885 -0.21385728 -0.22078362 -0.21094403
0001d0 8c ee f3 bd be 38 52 bc 13 71 3d bd 3f 77 3b be
       -0.119107336 -0.012830911 -0.046250414 -0.18307208
0001e0 45 11 92 3b ee 15 26 bc c7 af b6 bd d8 c4 cd bc
       0.004457625 -0.010137064 -0.089202456 -0.025118276
0001f0 63 85 18 bd fc f8 de bd d0 a9 0c bc dd c9 39 be
       -0.037236582 -0.10887334 -0.008585408 -0.18143411
000200 d2 43 74 bd e6 27 8a bd f0 27 99 bd 8c 6d f2 bd
       -0.05963499 -0.06745891 -0.074783206 -0.11837301
000210 36 91 15 bd 3c 95 50 be 3f 80 26 bd 1b e9 22 be
       -0.036515437 -0.20369428 -0.04064965 -0.15909235
000220 59 9b fc bd 4d e0 a9 bd a8 7a 81 bd 75 55 18 bd
       -0.12334318 -0.08294735 -0.06322223 -0.037190873
000230 d9 04 40 bd 08 6b 1d 3d 4c 49 8c bd 0a 27 9b be
       -0.046879623 0.03843215 -0.06849918 -0.30303222
000240 48 fc 36 be 1a 09 2a 3e fa 52 22 be 74 a6 31 bb
       -0.17869675 0.16605034 -0.15851966 -0.002710727
000250 c3 ca b9 bd aa 0d aa bd be 5e 22 3b 13 05 53 be
       -0.09071877 -0.083033875 0.002477571 -0.20607404
000260 d7 e1 1b be b6 e3 92 bd 12 e5 2e be b2 eb bf 3d
       -0.1522287 -0.07172339 -0.17079571 0.09371127
000270 5b 0f bc bd 5c e7 4b be 6a e3 23 be 0a 0a d1 bc
       -0.09182616 -0.19912475 -0.1600472 -0.025517482
000280 8c c7 af bd 58 ba 1c be 4c 66 51 be cc 19 02 be
       -0.085829824 -0.1530546 -0.2044918 -0.12705153
000290 7f 9c e7 bc 0d c4 a4 bd ee 08 c0 bd 82 c1 12 bd
       -0.028272865 -0.08045206 -0.09376703 -0.035829075
0002a0 65 9f 26 be 20 4e 63 bd 99 8f 8b bd b9 db 5f bd
       -0.16271742 -0.055494428 -0.068144985 -0.054652903
0002b0 af e4 15 be 02 58 9e 3a a3 0a ed bd da 32 03 bc
       -0.14638017 0.0012080672 -0.115742944 -0.008007729
0002c0 9f af f9 bd da 63 cf bc d4 5b 96 3c d6 8d 4d be
       -0.121917 -0.025316168 0.018354334 -0.20073637
0002d0 cd 42 ec bd 8f 6e 52 bd ba 0c 14 be 31 57 29 be
       -0.11536179 -0.05137497 -0.1445798 -0.16537167
0002e0 c7 e9 c6 bc 68 21 b1 bc c0 25 93 bd 08 4f 48 be
       -0.024281396 -0.021622375 -0.071849346 -0.19561398
0002f0 ed 19 22 be a1 40 da bd 3e 30 0d be ed 49 06 be
       -0.15830202 -0.10656858 -0.13787934 -0.13114138
000300 eb cb 55 be 64 50 07 be bb cc 33 be 5d 9c 66 3c
       -0.2087857 -0.1321426 -0.17558567 0.014075366
000310 2b 70 25 be eb bc 4b bb bf fb 9c bc c2 ea d2 bc
       -0.1615607 -0.0031087946 -0.01916301 -0.025746707
000320 93 a6 0e bc bd 5e 0f be 11 83 c6 bd 88 8d c5 bd
       -0.008706707 -0.14000984 -0.09692968 -0.096461356
000330 d1 d9 b1 bd c2 67 2f be 3e 69 4d bd b7 97 05 bd
       -0.08684123 -0.17129424 -0.050149195 -0.03261539
000340 db 8b 13 be 1e 88 ba bc d9 0a f4 3d 27 56 98 bd
       -0.1440882 -0.022769984 0.119161315 -0.07438307
000350 9b 68 f8 bd 67 5e 44 be 2f 9e 9f bc 54 8e 32 be
       -0.12129327 -0.19176637 -0.019484608 -0.17437106
000360 67 73 2d be 37 03 3e be 24 c0 b0 3d 20 0a ad bd
       -0.16938554 -0.18555914 0.08630398 -0.08449197
000370 55 0c 86 bd 42 89 2e be 3a f1 4f bd 63 55 fb bd
       -0.06545321 -0.17044547 -0.05076716 -0.122721456
000380 8e d1 ad 3c 50 cc df bd d0 25 fe bd eb 89 46 bd
       0.021218088 -0.109276414 -0.12409556 -0.048471373
000390 fa 5c 8b bd 9d 59 e3 bd 17 3c ac bd 29 eb 95 bd
       -0.06804843 -0.11101077 -0.08409899 -0.07320244
0003a0 98 a6 fe bd c6 60 f6 bd 0a f8 18 be 9d 9b bb bb
       -0.12434119 -0.12030177 -0.1493837 -0.0057253377
0003b0 28 a2 d8 bd 4c 2f 41 be f2 f4 6f 3c 3e c1 5b be
       -0.10577804 -0.18865699 0.014645802 -0.21460435
0003c0 42 02 98 bd cb cb 4e 3a 2e 22 88 bd 51 5a dd 3d
       -0.07422306 0.0007888644 -0.06647144 0.10808242
0003d0 42 2b 27 be 3e ce ba bc 67 07 e3 bc 5c 5c 41 be
       -0.16325095 -0.022803422 -0.02771349 -0.18882889
0003e0 9a 8c e4 bd af 30 05 be f8 c5 37 be 24 9c 41 be
       -0.1115963 -0.13006853 -0.17946613 -0.18907219
0003f0 45 8e c1 bc 3a 73 ce bc 12 8c cb bd f9 d8 4f be
       -0.02362741 -0.025201429 -0.09938826 -0.20297612

weight_hh_l0 f4 [240, 80]
000000 9f 47 d4 3d af d3 95 ba c3 7b 9a 3d db d4 c5 3c
       0.10365223 -0.0011430884 0.07543137 0.024149349
000010 29 2a 86 3d 8e 35 74 bc 29 ab 08 3e 56 6b 94 bd
       0.0655101 -0.014905347 0.13346542 -0.07247035
000020 a7 11 3e be 70 c2 02 be ba fe 97 3d 5b b3 99 bd
       -0.18561421 -0.12769485 0.07421632 -0.075049125
000030 56 ed 9f bd 70 33 7a bd d6 66 98 3d 4d ef ad bd
       -0.0780894 -0.06108421 0.074414894 -0.084929086
000040 06 ec cf bd 05 ce 0e 3d db 6d ea 3c ab d1 d9 bd
       -0.1015244 0.034864444 0.028616836 -0.10635694
000050 db 6d 35 3e b2 66 1a 3e 12 6b a4 3c 74 ce 90 bd
       0.17717688 0.15078238 0.020070586 -0.07070628
000060 87 a9 4f 3e 5a 17 2d bd bd 76 01 3e 09 5d 95 bc
       0.20279513 -0.042258598 0.12642951 -0.01823284
000070 5b 7f 4b 3e da 3b 46 3e 17 e2 3e 3e 5f bc d4 3d
       0.19872801 0.19358769 0.18640934 0.103874914
000080 2a 42 3a be f9 17 b1 3c 49 66 19 3e 22 17 4e 3d
       -0.18189302 0.021617876 0.14980425 0.05031503
000090 95 f6 f0 bd b1 48 8d bd 94 26 2b be d1 b6 39 be
       -0.11765782 -0.068986304 -0.16713935 -0.18136145
0000a0 06 04 eb 3d 87 d5 05 be d0 9e 57 3d 59 d7 c0 bd
       0.11475377 -0.13069735 0.05264169 -0.09416074
0000b0 22 e5 73 bd 88 10 ac 3d c6 8b 75 bc 31 33 29 3e
       -0.05954469 0.084015906 -0.014986938 0.16523434
0000c0 1f af 31 bd 22 51 37 3e c9 35 90 bd 92 af 9a 3d
       -0.0433799 0.17902043 -0.07041509 0.07553019
0000d0 de c1 e5 bc 6b 20 9c 3d a1 3c ab 3c a0 75 3a bd
       -0.028046545 0.07623371 0.020902934 -0.045522332
0000e0 14 5b d2 3b 90 4f 2b bb 32 89 83 be 79 58 ce 3b
       0.0064195488 -0.0026139952 -0.2569061 0.006297168
0000f0 c7 28 ba bc f0 87 2a bc 79 21 f4 bd 30 c3 a9 3c
       -0.022724522 -0.010408387 -0.11920447 0.020722955
000100 e6 92 68 3e ba a6 37 3e 1b 0e f8 bd 08 b6 3e 3c
       0.22712287 0.17934695 -0.121120654 0.011640079
000110 9a a9 95 3d 31 af 0b bd db 1c 83 bd 75 9a 48 3e
       0.073077396 -0.034102622 -0.06401988 0.1959017
000120 7a c5 18 bc a0 ac cc bd 4a e6 92 3c b1 27 02 bc
       -0.009324426 -0.09993863 0.017932076 -0.0079440335
000130 78 26 59 bd 13 25 09 3d ac 5d 39 3e 76 98 f2 3c
       -0.053015202 0.033482622 0.18102139 0.029613715
000140 bd 63 41 3d 7d d9 61 3d 9f da 31 bc 4b 0e ab 3b
       0.04721426 0.055139054 -0.010855346 0.0052202097
000150 d8 b3 72 3d ad 34 b6 bd 3b 3b 31 3d b5 c5 50 3c
       0.059253544 -0.08896766 0.043269377 0.0127424495
000160 3b d0 98 bc 11 e1 37 3c 86 03 d7 bd 45 de fc 3c
       -0.01865398 0.011223094 -0.10498719 0.030867705
000170 d2 66 41 3e 8d 05 e1 3c 0f b2 d2 bc 07 d0 1f bd
       0.18886879 0.027468467 -0.02571967 -0.03901675
000180 d5 94 46 3e 09 67 3c 3c 6a e2 42 bd a9 be 11 3e
       0.19392712 0.011499175 -0.047579207 0.14232887
000190 a7 e8 05 be f0 7a 59 3d 93 10 13 be 4f 94 71 bd
       -0.13077031 0.053095758 -0.14361791 -0.05897933
0001a0 1a 70 aa 3c 5c 6b 74 bd 85 c2 63 bd dc 11 1e ba
       0.020805407 -0.0596727 -0.05560543 -0.0006029883
0001b0 b3 d2 da bd c2 0a 99 be 3c 9d e7 bc 7c 03 0a be
       -0.10684719 -0.2989102 -0.028273217 -0.13477892
0001c0 8a 60 37 3e 19 1d 22 be d8 9f 14 bd 79 48 98 3b
       0.1790792 -0.15831412 -0.03628525 0.0046473113
0001d0 68 fa b0 3d 23 83 75 3d 79 5a 39 bd 30 d1 2f 3e
       0.08641511 0.059939515 -0.045252297 0.17169642
0001e0 54 2b 07 be b2 92 83 3c 4b 3a 97 3d 20 f4 1a 3e
       -0.13200122 0.01606116 0.073841654 0.15132189
0001f0 f7 68 8f 3d 67 cf 4f be d7 7b c3 bc b2 51 1a bd
       0.07002442 -0.20293961 -0.023862762 -0.037675567
000200 10 04 28 3c 77 02 f1 3b 14 c1 da 3c 68 32 af bd
       0.010254875 0.00735503 0.026703395 -0.08554536
000210 25 89 57 3e 4a fb 50 bd 98 7c 84 3d 4c e7 35 3e
       0.2104841 -0.051020898 0.06469077 0.17764014
000220 ee 7f db bd 2f 8f da 3d c4 45 c6 3d 6e 3c 47 be
       -0.1071776 0.10671841 0.096812755 -0.19456646
000230 29 a7 31 bd 86 03 b2 3d 38 fe 9c bc e0 6b 1a bd
       -0.043372307 0.08692078 -0.01916419 -0.037700534
000240 c3 88 ed bd 71 77 14 be 42 ff 3c 3e 6a 73 a5 bd
       -0.11598351 -0.14498688 0.18456748 -0.08078654
000250 b4 8a 47 bc 49 29 41 3e 6c 5a d5 3d 7d 8b 31 be
       -0.0121790655 0.18863405 0.10417637 -0.17338367
000260 fe 1b f0 3c 8f df ad bd d3 46 5b bd 08 10 09 3e
       0.029310223 -0.08489906 -0.05353434 0.13385022
000270 4a 7b 3a 3e b4 a2 9e 3d c6 80 3a 3b 96 0c 99 3c
       0.18211094 0.07745877 0.0028458103 0.01868276
000280 75 ba 96 bd b1 ce 17 3d 70 cd 7f 3d 4b 9e 0f 3e
       -0.073597826 0.03706235 0.06245178 0.14025228
000290 7e 85 d2 bd b2 ae 1d bd 2d 78 93 3d 8b db c2 bd
       -0.10279368 -0.03849668 0.07200656 -0.09514531
0002a0 0a 6c bf bd 29 4c 26 be e7 da 97 3d 8d e0 36 3e
       -0.09346779 -0.1623999 0.07414799 0.17859097
0002b0 ee f9 0b be a1 83 d6 bc 81 9d 36 bd 4a dc a9 3c
       -0.1366956 -0.026185812 -0.0445838 0.020734925
0002c0 2b 0e 12 bc a8 b7 aa bd fe 02 34 3e b8 ff 80 bd
       -0.008914511 -0.08335811 0.17579266 -0.062987745
0002d0 13 9c d3 bc fd f9 95 bd d7 94 f8 bd 55 d2 f0 bd
       -0.025831258 -0.07323072 -0.12137764 -0.11758868
0002e0 c4 80 02 3d 21 a9 c2 bd 48 b8 f7 3d 25 d0 c0 3c
       0.03186108 -0.09504915 0.12095696 0.023536751
0002f0 46 a6 61 bc 22 87 ee 3c b7 e8 29 bc 9d d3 f7 3d
       -0.013772553 0.02911717 -0.010370425 0.12100909
000300 46 e9 56 be 5e 1b c1 3d fc 4b 45 3d f4 18 21 3d
       -0.20987424 0.09429048 0.048168167 0.039330438
000310 5b a9 19 be f0 ca ea bc 1d 26 ee 3d d1 43 05 be
       -0.1500601 -0.028661221 0.11628363 -0.13014151
000320 dd 22 04 3e 3d 7c 6a 3c 35 92 fe 3d 37 c8 3f 3d
       0.12903924 0.014311847 0.124302305 0.0468218
000330 75 d9 f6 3c d9 d7 78 bb 1c a4 73 bd 75 26 ff 3d
       0.030132988 -0.0037970452 -0.05948268 0.12458507
000340 f1 ba b9 bd 6d e0 ee 3d d8 25 3a bd 90 37 d3 bd
       -0.09068859 0.116638996 -0.045446247 -0.10313332
000350 0e b8 ae bd be 09 94 3c 93 ea 80 3d c0 ed 33 be
       -0.085311994 0.018071052 0.062947415 -0.17571163
000360 a5 7c e6 3d d7 a7 1c bd 0f e3 25 3e 4e 73 1c be
       0.11254243 -0.038246002 0.16199897 -0.1527836
000370 07 55 34 3c 18 8d c3 bc c6 6e 0f 3d e5 08 4e 3e
       0.0110066 -0.02387099 0.03501775 0.2012058
000380 ce 9e f7 3c 8f 8d 97 3d 1d bc d6 bd 17 49 a1 bb
       0.030227091 0.07400047 -0.104850985 -0.004922043
000390 5e 80 0a 3c 85 dc cf bd 92 a1 ca bc b6 67 bb bb
       0.008453457 -0.10149483 -0.024735246 -0.0057191504
0003a0 96 b8 5b 3d d9 fe 45 bd 97 b6 bb 3c db 81 47 3d
       0.05364283 -0.048338745 0.022914214 0.048707824
0003b0 58 bf 7c bd 66 32 4f 3d 1f c7 3e bc cd 18 44 be
       -0.061705917 0.050585173 -0.011644154 -0.19150086
0003c0 ab 99 05 be 7c 9d b0 bc f9 9c 0f bd aa 7a fe 3c
       -0.13046901 -0.02155947 -0.03506181 0.03106435
0003d0 08 eb b3 3c 5b e6 05 be 86 48 a9 3c 76 c1 bd 3d
       0.021962658 -0.13076155 0.020664465 0.09265415
0003e0 11 84 17 3d 60 4b 02 be 2f 67 7c bd ac ee 0b 3e
       0.036991183 -0.12724066 -0.06162184 0.13665265
0003f0 8f 2f 3f 3d 48 67 fd 3c 79 19 1e be 49 5e 1a bd
       0.046676215 0.030933037 -0.15439405 -0.037687574

bias_ih_l0 f4 [240]
000000 3f c1 29 bd 7e 04 2c 3e 13 a6 2e bd 97 8b 85 bd
       -0.04144406 0.16798589 -0.04263885 -0.06520765
000010 28 b1 ca 3c 13 03 36 3e ad 70 47 be 2e 06 d6 3a
       0.024742678 0.1777461 -0.19476576 0.0016328746
000020 d1 67 ee 3c 6d 39 9b bc 88 7f 89 3c 4f 90 29 be
       0.029102238 -0.018948281 0.016784444 -0.16558956
000030 f3 02 02 bd 88 e4 42 3d 0a b0 1d bd 85 e5 cc bd
       -0.031741094 0.047581226 -0.038497962 -0.10004715
000040 f4 75 9b bd f3 c3 3f 3c d5 eb 01 3d 12 db 57 3d
       -0.07590857 0.011704433 0.031719048 0.052699156
000050 a7 5f 17 be 21 a4 56 3e f8 b6 26 3e ff 1d 08 3e
       -0.14782582 0.20961048 0.16280735 0.13292693
000060 9e b9 50 bd 79 30 42 bd 7b c2 a4 bd 00 ba b7 bc
       -0.05095827 -0.04740951 -0.08044907 -0.022427559
000070 76 4a 86 bd c0 a6 a2 3d 3e 25 f5 bd 6c ef 02 be
       -0.06557171 0.07941961 -0.11969994 -0.12786645
000080 df 42 3b 3e 58 81 81 36 a6 31 a4 bd c5 d5 ea 3d
       0.18287228 3.859557e-06 -0.08017282 0.114665546
000090 23 5c 07 3e e6 76 f7 3d 99 3b ee 3d 0f bf 49 bd
       0.13218741 0.12083225 0.11632461 -0.049254473
0000a0 da fd 5b 3d cc 86 fd 3c 26 22 87 bc c3 7a 13 be
       0.05370889 0.030948065 -0.016495775 -0.14402299
0000b0 cb cf 21 be 4b 62 45 3d 50 dd 8a 3b b0 63 29 be
       -0.15801923 0.048189443 0.0042378083 -0.16541934
0000c0 f5 68 c3 3d 44 2e 07 be 2b 1f aa bc af e6 5d bb
       0.09541503 -0.13201243 -0.020766815 -0.0033859422
0000d0 06 94 06 3d 9b 8c 91 bd 54 6d 73 3e a3 02 a6 3d
       0.03285601 -0.071068965 0.23772174 0.08105972
0000e0 b0 9f e1 3d a4 bb ca 3d 0b c7 36 be 64 14 2e 3b
       0.11016786 0.09899071 -0.17849366 0.0026562447
0000f0 c3 ce 39 3c bb fc 51 be 31 06 8c bd c5 a2 1a bd
       0.0113408 -0.20506565 -0.068371184 -0.037752885
000100 c7 8f de 3c 85 4a fb 3d df a1 fc 3c c7 11 22 be
       0.027168168 0.12270073 0.030838905 -0.15827094
000110 d2 ca 83 bd 0e 5f 52 bd 11 a1 22 3c ae 0d b6 bd
       -0.06435169 -0.051360182 0.009926097 -0.08889328
000120 54 e4 bc 3d f7 5e 31 be 07 64 7b bd 1f 35 1e bd
       0.09223238 -0.17321382 -0.06137469 -0.03862488
000130 53 6d 75 3d 1e 56 ae 3c b0 44 26 bd 62 c0 05 3e
       0.059918713 0.021281298 -0.04059285 0.1306167
000140 fb 2b 92 be 0f 8f d1 be a7 1a 40 be ca 92 9a 3d
       -0.2854918 -0.40929458 -0.18760167 0.07547529
000150 e6 5d 92 3b 41 c7 66 3e 8d 26 f3 bb c8 a4 cb 3e
       0.00446676 0.22536947 -0.007420367 0.39774156
000160 19 c9 30 bc 76 66 c2 bd d0 1f 82 3b cf 25 c1 3e
       -0.010790133 -0.09492199 0.0039710775 0.37724158
000170 34 88 14 3d 98 51 2b bc 87 d7 ff 3d 20 ec f1 be
       0.036262706 -0.010456465 0.124922805 -0.47250462
000180 1d 4a 18 be 06 13 48 be 03 a0 1e 3e 78 32 05 be
       -0.14872022 -0.19538507 0.15490727 -0.13007534
000190 3e 58 1c 3d c8 5a 52 be 10 d8 de 3d fb 27 d1 bc
       0.03817009 -0.20542443 0.108810544 -0.02553176
0001a0 0f 7a 15 3d e8 2e 4f bd 48 7a 14 3e 57 2e 83 be
       0.036493357 -0.050581843 0.14499772 -0.25621292
0001b0 f9 c0 1b be dc cb 23 be aa f3 98 bb 79 b0 28 3b
       -0.15210332 -0.15995735 -0.004667719 0.0025739952
0001c0 9e c5 50 be d5 6d 6c bd ac 1e 40 be 7f 70 5e bd
       -0.20387885 -0.05772193 -0.187617 -0.054306503
0001d0 14 0c cc 3a 03 4f 91 be 24 3e 41 be 7b 7e 9e 3d
       0.0015567564 -0.28380594 -0.18871361 0.07738968
0001e0 54 63 fc bd db b6 37 3e 8f cd b2 be 65 d5 23 be
       -0.12323633 0.17940848 -0.34922454 -0.15999372
0001f0 15 24 0c be 0a 74 52 be 14 87 9e be f4 5a dc 3d
       -0.13685639 -0.20552078 -0.3096243 0.107595354
000200 e0 71 b5 be 8c fe a7 be 31 88 09 3e c4 62 3a be
       -0.35438442 -0.3281139 0.13430859 -0.18201739
000210 13 8d 5d be d2 b9 9c 3e f6 ca 79 be a6 e8 61 bd
       -0.21635847 0.3061052 -0.2439383 -0.05515351
000220 cc e5 58 3e 3a 64 1e 3e fe 89 3d be c4 dc 51 be
       0.2118141 0.15467921 -0.18509671 -0.20494372
000230 84 07 08 be c4 a8 3e 3d b3 b9 e7 bd 1b 28 f1 3d
       -0.13284117 0.046547666 -0.11314716 0.11775228
000240 1c 99 7b be 13 1f 46 3e ca a5 5e 3e aa e8 3c be
       -0.24570125 0.19347791 0.21742931 -0.1844813
000250 41 55 b9 bd 53 d4 a2 3d f1 46 aa bd 58 a3 e8 3c
       -0.09049464 0.07950654 -0.08314312 0.0283982
000260 e7 75 9e 3d 32 43 eb be 83 44 43 bd 7a 6c d4 be
       0.07737332 -0.45949703 -0.04767276 -0.4148901
000270 de 9c da bd 38 72 e0 bb 98 6e 8e 3e b6 75 98 bd
       -0.10674451 -0.0068495534 0.2781875 -0.074443266
000280 65 73 98 bd 89 5a 96 bd 2a bd 92 3d 7d 08 35 be
       -0.07443885 -0.07341487 0.071649864 -0.1767902
000290 9e dc a5 bc 9b 1e cb bc 89 4f 41 3d 05 52 44 bd
       -0.0202468 -0.024794867 0.04719499 -0.047929782
0002a0 c3 3f 42 3e cc 15 90 39 7d ee f6 bc f9 3f cb 3d
       0.18969636 0.0002748206 -0.030143017 0.09924311
0002b0 57 29 cf 3d d4 93 8d bd b5 64 ba bb cd da 7b 3b
       0.10115307 -0.069129616 -0.0056882747 0.0038429976
0002c0 a0 f1 17 3e 97 5e d8 bd cb de 10 bd 42 e3 b0 3d
       0.14838266 -0.105649166 -0.035368722 0.08637096
0002d0 48 7d df 3d 6e c1 00 bd fb 8f 82 bd 67 ab 39 3e
       0.109125674 -0.03143447 -0.06375118 0.18131791
0002e0 fe 36 fd bd 7e 06 f9 bd 0e 29 17 be 6d 46 6a 3c
       -0.123640046 -0.121594414 -0.14761755 0.014299017
0002f0 42 07 10 be 5f 5b 10 bd b8 28 00 be ed e1 97 3c
       -0.14065269 -0.03524339 -0.12515533 0.018540347
000300 a8 47 f3 3d 43 fe 07 3d 2f 3b 29 be b1 f1 7b bd
       0.11878902 0.033201467 -0.16526483 -0.06150979
000310 ff 5a 33 3e 5e 27 6d 3d ff 1b 5e 3d 2d 06 49 3e
       0.17515181 0.05789887 0.054225918 0.19631262
000320 df 97 43 3d 42 22 7c bc d0 97 e0 3c e5 5d e9 3d
       0.047752257 -0.015389027 0.02741614 0.11394862
000330 07 f2 90 3d 73 64 37 bd d9 a6 59 3d c5 87 a3 bd
       0.07077413 -0.04477353 0.053137634 -0.0798488
000340 04 4b 2e 3e 84 ad ce bd 85 e5 99 3c 2f ec 17 3d
       0.17020804 -0.10091689 0.018786201 0.037090477
000350 d5 32 3d 3d 42 25 8d bd a3 3a a4 bd a2 a8 fc 3d
       0.046191055 -0.06891872 -0.080189966 0.12336852
000360 b8 2f 25 bc ea 3f a5 bc f5 9a 8b 3d 27 a5 22 be
       -0.010082178 -0.020172078 0.06816665 -0.15883313
000370 f5 b5 29 bc d7 4a fb 3d 24 98 d3 bb 89 ce 32 be
       -0.010358323 0.12270134 -0.0064573456 -0.174616
000380 a1 83 4a 3c e0 0d 38 be 37 74 81 3d 20 86 7d 3b
       0.012360484 -0.17974043 0.06320994 0.003868468
000390 88 2a f3 3c 6b c0 4c 3e ae ae 1e be 21 3a 35 bd
       0.029683366 0.19995277 -0.15496323 -0.04424489
0003a0 0d 4d 8b bc 34 18 4f bb 2f 09 12 be 11 4d 30 be
       -0.017004514 -0.003160012 -0.14261316 -0.17216899
0003b0 98 63 9a 3d c1 28 28 3e f0 fe b8 bc 17 d4 68 3d
       0.07538527 0.16421796 -0.022582501 0.05684289

bias_hh_l0 f4 [240]
000000 68 68 51 be ad 26 00 3e e5 a8 b1 bd 1d 96 d4 bc
       -0.20449984 0.12514754 -0.08674792 -0.025950486
000010 42 0c 06 bd 61 e5 fe 3d c5 d9 cd bd 1b f1 1a 3d
       -0.032726534 0.12446094 -0.10051302 0.037827592
000020 87 1b 4e bd e8 b4 04 bd 7a 46 45 bc 6d 27 86 bd
       -0.05031922 -0.03239909 -0.012040729 -0.065504886
000030 83 25 88 3d f7 c2 1d be b1 08 da 3d f1 35 ce bd
       0.0664778 -0.15406404 0.10646189 -0.10068882
000040 ce 27 b2 bd 96 26 28 3e e1 e9 8f bd 53 18 9e 3d
       -0.086989984 0.1642097 -0.07027031 0.07719483
000050 89 6d 83 be 83 81 60 3e 33 94 1b 3e 22 6a c9 3c
       -0.25669506 0.21924405 0.15193252 0.02458674
000060 1c 54 fe bd 4f 8f 98 bd 35 21 f5 bd 35 f7 08 be
       -0.12418386 -0.07449209 -0.11969224 -0.13375552
000070 81 15 cf bd b4 fb c6 3d b3 da 35 be a7 07 22 be
       -0.101115234 0.09715977 -0.17759208 -0.15823232
000080 34 fd 76 3d ad 04 8f 3d 56 37 6a bd 29 16 64 3d
       0.060300067 0.06983314 -0.05718168 0.055685196
000090 ae cc f8 3d dc 69 10 3e b2 13 8e 3d 44 50 dc bc
       0.121484146 0.14102882 0.0693735 -0.026893742
0000a0 2f 92 6d 3b 41 75 18 3e 24 df e8 bd 1b 0d 75 3c
       0.0036250462 0.14888479 -0.11370686 0.014956738
0000b0 71 73 e9 bd 75 4a 4f 3d 08 61 36 be bf 25 1e 3d
       -0.11398972 0.050608117 -0.17810452 0.038610216
0000c0 17 f7 a6 3c e8 1c f8 3b 94 e8 1e be da d8 8e bd
       0.020381493 0.0075718053 -0.15518409 -0.06974955
0000d0 14 d4 a6 bd be bd 82 bd ff 2f 20 3d ee b8 5f bd
       -0.081459194 -0.06383847 0.039108273 -0.054619722
0000e0 17 df 9d bc 4c d0 0c 3e 4c b6 53 be 76 e6 1f 3d
       -0.019271417 0.13751334 -0.2067501 0.039038144
0000f0 21 25 8c 3c 90 b0 a6 bd a7 97 ae bd 0f 43 6d 3a
       0.017107548 -0.081391454 -0.08525019 0.0009050825
000100 10 ad 3f 3e cf 90 2e 3e 81 d9 cf bc c3 00 a1 3c
       0.18718362 0.17047428 -0.025372269 0.019653684
000110 90 03 15 be da d3 61 3b d4 d4 84 bd a1 c7 8c bd
       -0.1455214 0.0034458549 -0.06485906 -0.06874014
000120 1a 1e 60 3d bb 1c d8 bd b7 ca 2e be 54 c3 31 be
       0.054716207 -0.10552355 -0.17069517 -0.17359668
000130 d1 6b 45 bd b8 b2 01 3e 2a b1 8a bd 16 71 2d bc
       -0.048198525 0.12665832 -0.067720726 -0.010586044
000140 c5 00 8b be f9 0c c5 be 8d 7b 19 be be 84 1c 3e
       -0.27149025 -0.3848646 -0.14988537 0.15285012
000150 18 c4 29 be 06 03 06 3e b0 67 7e bc c8 75 ee 3e
       -0.1657871 0.13087091 -0.015527651 0.46574235
000160 3c 53 ab bc 74 67 4d bc 65 18 3a 3d 8c 8c 8f 3e
       -0.020913713 -0.012536872 0.04543342 0.28036916
000170 ca 90 de 3d 3c f6 ba bd 16 18 c0 ba 92 13 bd be
       0.1086746 -0.09128997 -0.0014655616 -0.36928993
000180 ef ba 23 be 60 4f 03 be 07 f0 b0 3d e3 a9 ee bd
       -0.15989278 -0.12823248 0.086395316 -0.11653497
000190 ed 20 a7 3d 87 ce e6 bd 72 cf f7 3b 7c 50 60 3d
       0.08160577 -0.11269861 0.007562571 0.054764256
0001a0 eb 67 bf bd f1 19 d5 bc aa 4a 69 3e 4b 0a a5 bd
       -0.09345993 -0.026013346 0.22782388 -0.08058604
0001b0 d7 06 26 be 52 9e dc bd 06 aa 31 3d 37 b6 d1 3c
       -0.16213547 -0.10772385 0.043375038 0.025599582
0001c0 4f 00 ad bd ef f0 4d bd b8 2c 67 be 9e e7 c5 bc
       -0.084473245 -0.0502786 -0.22575653 -0.024158295
0001d0 3a e4 30 3e 94 38 64 be c7 45 53 be 01 9a e9 3d
       0.17274562 -0.22287208 -0.20632087 0.11406327
0001e0 4a aa c0 bd c9 09 12 3e 79 c7 bd be dd 92 4f be
       -0.0940748 0.14261545 -0.37066248 -0.20270868
0001f0 b6 21 9a be 03 70 32 be 97 39 e1 be 8a 9a 80 3d
       -0.30103844 -0.17425542 -0.4398925 0.06279476
000200 48 0b 9b be d0 84 25 be 50 6c 22 3e 75 ad 88 be
       -0.30282044 -0.16163945 0.1586163 -0.26694837
000210 a9 3c 5c be a3 4c b5 3e 04 49 9f bd 6b 94 36 3d
       -0.21507515 0.35410032 -0.077775985 0.044575136
000220 46 2c 43 3e f3 c8 83 3e 0e 67 7d be 7b c1 93 bc
       0.19059858 0.2573925 -0.24746343 -0.018036595
000230 6a cc b7 bd 54 cf 4b 3d e9 27 81 bd 9b cf 2f 3e
       -0.08974536 0.04975827 -0.063064404 0.17169039
000240 9e a1 5b bd b0 ef 34 3e ee f2 80 3e 4e 66 aa be
       -0.053620927 0.17669559 0.2518534 -0.33281177
000250 6c d7 2e bd 61 62 62 3e ec 71 46 bd d3 46 e3 bd
       -0.04268591 0.22107841 -0.048448488 -0.11097493
000260 9a 56 f3 bd e8 f3 cc be 5f 06 cd bd a6 a8 f4 be
       -0.11881752 -0.40029836 -0.10010981 -0.4778492
000270 f8 09 24 bd e0 57 aa 3d 46 9f 81 3e 40 48 14 be
       -0.04004857 0.08317542 0.25316828 -0.14480686
000280 bb 0c 9b 3d cd cd af 3b 9f 00 85 bc 75 82 c7 3c
       0.075707875 0.0053651095 -0.016235648 0.024354199
000290 04 ea cb 3d a7 ee 0f be 34 e2 46 3d 6e dd 9b 3d
       0.09956744 -0.14055882 0.048555568 0.07610594
0002a0 b4 e7 0a 3e a7 c6 d0 3d 3e cc 83 bd 3c ba db 3d
       0.1356495 0.1019414 -0.064354405 0.10728881
0002b0 3d 72 06 3e f9 9a 28 bc b0 f4 d9 3c 8c 19 55 3e
       0.13129516 -0.010290855 0.026605934 0.20810527
0002c0 66 1f 8f 3d 8f 8b 91 bd 8c 55 aa bd e1 38 c7 3d
       0.06988411 -0.07106697 -0.08317098 0.09727646
0002d0 88 e1 5c 3c c7 88 33 bd 92 59 7f bd 4f ef fd 3d
       0.013481505 -0.043831613 -0.06234128 0.1239916
0002e0 8e 79 ae bd ff 82 b3 bd 96 82 a0 3c e7 af 93 bd
       -0.085192785 -0.0876522 0.019593518 -0.07211285
0002f0 32 27 a9 bb b8 29 28 3d 39 ed d3 3c 2e 04 c9 bd
       -0.005162143 0.04105541 0.025869953 -0.0981525
000300 5a af 02 3d 2f 16 a8 bc c4 73 7f bd bf 17 56 bd
       0.03190551 -0.02051839 -0.062366262 -0.05226874
000310 e9 a6 d6 3d 70 58 9c bd 5f 79 f8 3d 64 54 5f 3d
       0.10481054 -0.076340556 0.12132525 0.05452384
000320 c6 ce 91 bd 1d bb d5 3d 3e 8e 27 bc e1 90 76 3d
       -0.07119517 0.1043608 -0.010226784 0.06019676
000330 2c c2 67 3b 53 3d 85 3d 51 ff 10 bb ec 7c 4e 3d
       0.0035363538 0.06505837 -0.0022124837 0.050412104
000340 24 5e 5c 3d b3 07 bc 3c 66 ea c6 bb 7a 08 33 3d
       0.053800717 0.02295289 -0.006070423 0.043709256
000350 f1 cb 1b 3e 3f 7c 20 be d9 e9 af bd c3 3a 01 3e
       0.15214516 -0.15672396 -0.08589525 0.12620072
000360 46 1c 8a 3b 81 62 83 3d f9 ae 69 3d ae 91 82 bd
       0.0042147962 0.064152725 0.057051633 -0.063754424
000370 5c dd 03 be 28 ba 96 bd f0 ba fd 3d b1 12 32 be
       -0.1287741 -0.07359725 0.12389171 -0.17389943
000380 37 08 b8 bc 8a 16 80 bd 1e 92 08 bc d6 ab ef bd
       -0.022464855 -0.06254299 -0.008335618 -0.11702697
000390 1a 98 37 3b 37 c1 77 3d cb c4 50 bd 1e 5b e2 bd
       0.0028014244 0.060487 -0.050968926 -0.110525355
0003a0 df 6d be bd ed 1c 03 3b 02 85 5b 3c 31 13 b4 3c
       -0.092983 0.0020006255 0.013398411 0.021981807
0003b0 c0 11 de 3d 58 6e ee 3b be c7 c2 bd 79 a3 32 3e
       0.10843229 0.0072763376 -0.09510754 0.17445172

weight f4 [16, 80]
000000 00 7a 87 bb 10 57 22 bf 5f 6a df 3c 92 d5 95 3d
       -0.0041344166 -0.63414097 0.027272401 0.07316126
000010 1d 45 c3 bc 30 46 2f 3e 7c 2a 3c 3d 9b 2a 18 be
       -0.023836667 0.17116618 0.045938954 -0.14860003
000020 27 a4 95 be 6c 9b 5a 3d 61 36 ce bb b9 a3 41 be
       -0.292268 0.053370878 -0.0062931036 -0.18910111
000030 6f 01 1e be 1e 64 bd 3d bb 5f 95 bd 19 2c 41 3d
       -0.15430234 0.092476115 -0.0729365 0.047161195
000040 3a ce 71 3d 7f 88 1a be 80 9d 24 3e 2d b1 14 bd
       0.059034564 -0.15091132 0.16075706 -0.03630178
000050 29 a8 a9 bd 61 c6 eb be 0e 3a cb 3c cd af 99 3d
       -0.08284027 -0.4604979 0.024807956 0.075042345
000060 b8 7d e2 3d 63 e8 17 be 42 69 49 3e d9 72 54 be
       0.11059135 -0.14834742 0.19669059 -0.20746936
000070 dc 0c a6 bc 79 26 45 bb e0 0e e0 3d fe 79 ec 3a
       -0.020269804 -0.0030082746 0.10940337 0.0018041728
000080 14 50 63 3d 96 94 27 bc dd 91 5d be 24 cb 18 bd
       0.05549629 -0.010228297 -0.21637674 -0.037303105
000090 cf 25 a1 be 0c e3 89 be 42 31 4b 3e 66 37 83 be
       -0.31474158 -0.26931036 0.19843009 -0.25628203
0000a0 26 0d b5 bd d5 38 c2 bd 38 d7 01 3d cb 56 8d bc
       -0.088403985 -0.09483496 0.03169939 -0.0172533
0000b0 a2 ab 28 3d 22 ca 0f 3e 1c 35 a6 be e2 f1 8f 3e
       0.041179307 0.14041951 -0.32462394 0.2811423
0000c0 0b 69 27 3e 28 ef 9b 3b 65 15 ef bd 71 95 69 bd
       0.16348664 0.0047587343 -0.116740026 -0.057027284
0000d0 77 15 13 bc c1 c5 ef 3d 53 87 cc be 49 7c c2 bd
       -0.008977286 0.117076404 -0.39946994 -0.09496362
0000e0 03 0d 59 3e a0 da a3 bd f5 d1 e9 3d 36 21 00 be
       0.2119637 -0.08000684 0.11416999 -0.12512669
0000f0 a3 87 8f bd 27 22 20 3e 1c e6 ac 3b 06 92 56 3e
       -0.070082925 0.15638028 0.0052764546 0.20954141
000100 08 a7 80 3d d5 45 0b 3e a2 2c 4e bd 71 64 2f 3d
       0.06281859 0.13600858 -0.050335534 0.042820398
000110 9e 3f 42 be cc 5b 10 be b6 cc 22 bd 6b 14 15 3e
       -0.1896958 -0.14097518 -0.03974601 0.1455857
000120 60 18 bc bd 00 61 10 3e a5 87 19 3e 25 01 a6 bd
       -0.09184337 0.14099503 0.1499315 -0.08105687
000130 06 83 ba bc 57 e0 af bc 7a 03 a8 3e 3f 6e c2 bb
       -0.022767555 -0.021469278 0.32815152 -0.0059335525
000140 1c f9 9e 3e 56 6f 39 be 31 c0 2f bd ff 2d 53 bd
       0.3104943 -0.18108878 -0.042907897 -0.051557537
000150 1d 45 d8 3c e5 70 13 3d 68 f3 cd bc 00 23 a0 3d
       0.026400143 0.035996336 -0.02514048 0.07819176
000160 aa 75 d1 3d e2 59 48 bf 02 ca 34 bc 6a 52 e1 bc
       0.10227521 -0.7826215 -0.011034491 -0.027505118
000170 55 b9 b1 3d 21 a0 d9 3c 1e b7 91 3c b3 9c 04 3e
       0.086779274 0.026565613 0.017787512 0.12950401
000180 1c d5 e4 3d e6 48 eb bd 2c b9 ce 3c ef 55 14 3e
       0.1117346 -0.11488514 0.025234781 0.14485906
000190 2d 95 7d be b2 72 7a be c5 2b ed 3e 47 95 e7 3d
       -0.24763937 -0.24457815 0.46322456 0.11307769
0001a0 5b 5c af 3e b1 d3 c7 bd 8a 59 9b bd 54 f7 b5 bd
       0.3425015 -0.09757174 -0.075854376 -0.08885065
0001b0 2c b3 2f be 24 09 de 3d 65 5d 57 bd a5 1d db bd
       -0.17158192 0.10841587 -0.052579302 -0.106990136
0001c0 8c e4 3f 3e aa 9d a6 bd 05 45 2a be 85 a4 d9 bd
       0.18739527 -0.08135541 -0.16627891 -0.10627083
0001d0 c0 ea c9 3b aa 35 c1 be c0 8b f1 bc 6e c6 ed 3d
       0.0061620176 -0.37736255 -0.029485583 0.11610113
0001e0 95 4f 8c bd 66 cd 31 3e 69 d6 5e be 89 3a 6e bd
       -0.068511166 0.1736351 -0.21761478 -0.058161292
0001f0 c8 9b cf b8 a6 7f a3 bd 10 fc cd bd 2f e6 fe bd
       -9.899546e-05 -0.079833314 -0.10057843 -0.12446248
000200 33 c6 00 3e 97 9e 14 be 47 a8 d5 3d 45 ba 1a be
       0.12575607 -0.14513622 0.10432487 -0.15110119
000210 76 99 10 3e 46 fe 3e 3c de 81 70 be 53 20 47 3e
       0.1412104 0.011657303 -0.2348704 0.19445924
000220 1e 59 3e be cb 45 35 3e 7e 35 19 be de bf 82 bd
       -0.18588683 0.17702405 -0.14961812 -0.06384252
000230 eb b3 09 be 04 03 30 3d 5c 73 95 3d 9d a0 3f be
       -0.1344754 0.042971626 0.07297394 -0.18713613
000240 b5 5d 74 bd eb 83 31 be 47 f6 aa bc bc 36 29 bd
       -0.05965968 -0.17335479 -0.020869387 -0.041311964
000250 ca 75 ac bd 63 13 35 3e f1 4d 0d be bd 1e d7 bd
       -0.08420904 0.17683177 -0.13799264 -0.1050391
000260 ab 7a e5 bc dc e1 1b 3b 26 7a b3 bd 18 b0 bd bd
       -0.028012594 0.0023785746 -0.08763532 -0.09262103
000270 a7 ae 21 3e cc 00 c6 3d e0 c3 fd bc 77 4b 37 bb
       0.15789281 0.09668121 -0.03097719 -0.0027968565
000280 90 7c 5f bc a6 e5 43 bc df 63 0e 39 7f cd 26 3e
       -0.013640538 -0.011956608 0.0001357938 0.16289328
000290 8f 3e 1a bc fc 0a a8 3d 87 b0 0b bd ca 86 0f 3d
       -0.009414329 0.0820522 -0.034103896 0.035040654
0002a0 26 d2 a5 bd b9 58 d7 bc b3 8e 1c bd 51 cf 0a be
       -0.08096723 -0.026287423 -0.038222026 -0.13555647
0002b0 4d f2 f8 bd 1d d8 95 3b b1 bb 01 3e df 11 e3 bc
       -0.1215559 0.004572882 0.12669255 -0.027718483
0002c0 50 20 2b bd ab dc 06 3b 62 a4 89 bc 1c 1f 02 be
       -0.041778862 0.0020578306 -0.016802017 -0.1270718
0002d0 65 a9 24 bc ff 42 96 bb 28 b8 80 bd 0b 25 59 bc
       -0.010050152 -0.0045856233 -0.06285125 -0.013253461
0002e0 5c fe 3a bd a0 36 72 3d b5 a8 a5 3c 4c c4 15 bd
       -0.045652732 0.059134126 0.020222047 -0.036564156
0002f0 49 b0 18 3e 43 5c d6 3c e1 61 61 bd 9c 71 16 3e
       0.14910997 0.02616704 -0.055024985 0.14691776
000300 5c 5c 14 bc d2 dd 20 3e fa 62 0a 3c 1a a9 8f 3d
       -0.009055223 0.15709618 0.008446449 0.070146754
000310 79 44 10 be b1 a5 27 bc c4 7e 3d bd cc e7 7c bd
       -0.1408862 -0.010232375 -0.04626347 -0.061744496
000320 e8 f5 a8 bc 76 71 90 bd 4f f7 70 3d 59 39 58 bd
       -0.02062507 -0.07052891 0.0588296 -0.052789066
000330 4b df 1c be 4e ab ed 3c ae 14 26 bd 09 36 a7 bb
       -0.15319555 0.029012349 -0.040547065 -0.005102877
000340 d0 d4 21 bd 2b 2c 90 3d 75 14 9d bd 60 c3 c9 bc
       -0.039509594 0.07039674 -0.076699175 -0.024629295
000350 97 99 02 be 57 04 08 3e 71 d5 1b bd 79 e3 c8 ba
       -0.12753902 0.13282906 -0.03804535 -0.0015326581
000360 b3 c6 86 3d 7c 70 fc 3c cd d2 5b bd 4b 4a 4e bd
       0.065808676 0.030815355 -0.053667832 -0.05036382
000370 f7 49 b1 3c 91 d3 bc 3d ce d6 eb bd b7 56 4a 3d
       0.021641714 0.092200406 -0.1151558 0.049399104
000380 7d a9 ad 3d 04 59 6a 3d e2 96 e2 3a 2f a8 98 bc
       0.08479593 0.0572138 0.0017287398 -0.018634884
000390 52 d5 7d 3d 04 f6 fc bd 42 86 c8 3c cc 28 b4 3d
       0.061971016 -0.12351611 0.024478082 0.08796844
0003a0 c7 2d 16 3e c2 07 08 3c ef 0c ec 3d 17 9b 0b bd
       0.146659 0.008302631 0.115259044 -0.034083452
0003b0 e3 b8 1b be 6b e2 0d bd f7 73 60 3c 88 28 b5 bd
       -0.15207247 -0.034639757 0.013699523 -0.08845621
0003c0 17 2b cd bc dc 5f 0f 3e 71 9e 22 3d a9 09 b4 3d
       -0.02504496 0.14001411 0.039701883 0.08790905
0003d0 13 6b 17 3c 06 78 8c bd 42 3a ab 3d 22 e1 18 be
       0.009241837 -0.0685883 0.08360721 -0.14929631
0003e0 f9 21 e4 bd 13 e1 8f bd 3a 57 c9 3c 24 64 a5 3d
       -0.11139292 -0.070253514 0.024577726 0.08075741
0003f0 85 f0 1e be e1 b5 23 37 41 11 4a 3c a1 18 04 be
       -0.15521438 9.757904e-06 0.012333215 -0.1290002

bias f4 [16]
000000 d3 a0 5a bd d9 51 dc 3d 95 7f 08 be 21 b1 ad bc
       -0.05337603 0.10757799 -0.13329919 -0.021202626
000010 3b 6a 2c be dc 4c 0f be 0d b0 fa 3d da e2 81 bc
       -0.16837399 -0.13994163 0.1224061 -0.015855242
000020 8c 94 9d bd d1 35 0a 3b da 97 56 bd b7 e8 40 bd
       -0.07694349 0.0021089206 -0.05239091 -0.047096934
000030 19 ff 00 be 79 aa b6 bb d4 d7 52 3e 0c 95 a1 bd
       -0.12597312 -0.005574521 0.20590144 -0.078897566
