models/model_KNet_para.pt (torch, 407582 bytes, 20 tensors)

weight f4 [320, 4]
-0.0059730336 -0.34631273 0.30833003 0.36791968 0.38534695 -0.3812787 0.24109845 0.3439784
0.37950206 0.34835947 0.10676681 0.2391199 0.101380125 -0.16966912 0.16813324 0.08134273
-0.44297498 0.3777182 0.061912812 -0.22584677 0.3761949 -0.30876657 -0.14438847 0.2981644
-0.5498692 0.2716883 0.08937187 -0.11895191 -0.30405042 0.17040412 0.43870616 -0.29626805
0.18772912 0.22710308 -0.20807515 0.29356882 -0.15569738 0.28343987 -0.13213694 0.27097714
0.48989242 -0.05948747 0.27062654 0.2955781 -0.41269875 -0.2065267 -0.45754176 -0.032379232
-0.45404175 -0.21751246 -0.46521 -0.052969757 0.36879486 -0.060027108 -0.12293769 -0.42687458
-0.20492189 -0.1779626 0.14175807 0.21880059 -0.12678374 -0.09518625 -0.05647539 0.29947454
0.21155669 -0.0252426 -0.08021461 -0.01700284 0.5442606 -0.18777546 0.3112565 -0.39872697
0.37412214 -0.4254421 -0.42232612 0.100907736 0.17873994 -0.3273666 -0.00817569 0.30639195
0.36154744 -0.31283683 0.3667284 -0.36761126 -0.1541684 -0.011982534 -0.25503424 -0.48090228
-0.10586035 0.23251277 0.20396188 -0.053478442 0.41776758 -0.26508522 0.18907884 -0.380739
0.20440814 0.05307063 -0.08972218 -0.4097589 0.24994919 -0.16420677 0.26335567 0.19286776
-0.16417319 -0.4162641 -0.44913042 -0.2504944 0.19042404 0.13662022 0.036991548 -0.30305755
0.285399 0.549063 -0.17822465 0.20374437 0.2269621 -0.3566438 0.22525394 -0.1041142
-0.3509895 -0.06851773 0.15900822 -0.088665545 0.19524305 -0.43671012 0.26780844 -0.16586715
-0.23453946 0.06646107 -0.22159277 0.09265714 -0.012593288 -0.2579484 0.4009665 -0.36708486
-0.08008778 0.006745965 0.45478767 0.3995435 0.14390963 0.15738241 -0.36881053 -0.32470548
0.4194988 0.19249699 0.38923678 0.48184106 0.321578 -0.22731516 -0.291175 -0.42028686
0.26031828 0.3052893 0.20132272 -0.097462095 0.5102497 0.2322335 -0.0624241 -0.3835427
-0.35907564 -0.37097216 -0.41704515 0.16759133 -0.4326208 0.37196073 -0.017633248 -0.14476793
0.0009626439 -0.38930017 0.3060441 -0.34916702 -0.40690795 0.24986541 -0.25486156 -0.018215777
0.4356534 -0.431922 0.3981635 -0.2774371 0.33715668 -0.44131714 -0.07791357 -0.13765179
0.32625943 0.36859846 0.079755984 0.36180907 0.20488818 -0.298776 0.26572248 -0.1801814
0.10019315 -0.158795 0.010788417 0.28088868 0.39183867 0.1865713 -0.2902681 0.2603612
0.31258416 -0.2338397 0.13277231 -0.42481285 -0.36471492 0.33176625 -0.34020847 -0.16316126
0.7043566 -0.22909409 -0.07960118 0.075320356 0.12664902 0.09799422 -0.42069393 -0.14492607
0.33175892 0.053506967 -0.14030369 0.42081663 -0.017446075 0.17694119 0.4069828 -0.15789992
0.50628245 0.09155945 -0.07112434 -0.30649763 0.34151915 -0.5259896 -0.3793695 -0.054035053
-0.13009004 0.10422365 -0.18279864 -0.2888499 -0.0816621 0.536496 0.4557133 -0.17228208
0.15085417 0.028711142 -0.45765468 0.34460688 0.15356146 0.36288986 0.25504914 -0.46424717
-0.35399583 -0.29161552 0.3232053 0.22043535 0.4549078 -0.22505777 -0.37120295 0.10310666
00000000: 70b9 c3bb e74f b1be 6fdd 9d3e f85f bc3e
00000010: 324c c53e f636 c3be 83e2 763e f01d b03e
00000020: 184e c23e 2c5c b23e 8fa8 da3d d9db 743e
00000030: 62a0 cf3d bebd 2dbe 1f2b 2c3e 0497 a63d
00000040: 9ecd e2be 4864 c13e 4a98 7d3d 6044 67be
00000050: 9e9c c03e a716 9ebe 92da 13be 01a9 983e
00000060: 3ac4 0cbf bb1a 8b3e 9908 b73d 0f9d f3bd
00000070: 7fac 9bbe 6b7e 2e3e 189e e03e 72b0 97be
00000080: 103c 403e b68d 683e a711 55be a74e 963e
00000090: 226f 1fbe 081f 913e e84e 07be 84bd 8a3e
000000a0: 2ed3 fa3e 22a9 73bd 908f 8a3e 0356 973e
000000b0: 404d d3be bc7b 53be ea42 eabe 16a0 04bd
000000c0: 2978 e8be 96bb 5ebe 0130 eebe d1f6 58bd
000000d0: aed2 bc3e fcde 75bd c1c6 fbbd 4e8f dabe
000000e0: 0bd7 51be d43b 36be 0729 113e 430d 603e
000000f0: 99d3 01be 02f1 c2bd bd52 67bd ba54 993e
00000100: 51a2 583e 92c9 cebc 8f47 a4bd 8a49 8bbc
00000110: aa54 0b3f 3648 40be 035d 9f3e f125 ccbe
00000120: f08c bf3e 8cd3 d9be 213b d8be b7a8 ce3d
00000130: 9a07 373e 989c a7be 54f3 05bc 68df 9c3e
00000140: bf1c b93e 262c a0be d3c3 bb3e 8b37 bcbe
00000150: 52de 1dbe 6452 44bc d993 82be d338 f6be
00000160: 50cd d8bd d417 6e3e 62db 503e 360c 5bbd
00000170: a2e5 d53e 40b9 87be e29d 413e 39f0 c2be
00000180: 5e50 513e 9760 593d 43c0 b7bd ebcb d1be
00000190: aef2 7f3e d225 28be 8ed6 863e 207f 453e
000001a0: 041d 28be 9120 d5be 6cf4 e5be cd40 80be
000001b0: 85fe 423e 2ce6 0b3e 7384 173d 5c2a 9bbe
000001c0: d11f 923e 658f 0c3f 8680 36be 5da2 503e
000001d0: c168 683e 049a b6be f8a8 663e d339 d5bd
000001e0: e5b4 b3be 0653 8cbd 0dd3 223e 4896 b5bd
000001f0: cbed 473e 7898 dfbe 301e 893e 14d9 29be
00000200: 1d2b 70be be1c 883d 37e9 62be 07c3 bd3d
00000210: 1454 4ebc d011 84be 7b4b cd3e 8cf2 bbbe
00000220: 1005 a4bd 420d dd3b eed9 e83e f790 cc3e
00000230: 0c5d 133e db28 213e bcd4 bcbe cc3f a6be
00000240: 8cc8 d63e ee1d 453e 0b4a c73e dfb3 f63e
00000250: dfa5 a43e 4ec5 68be e414 95be d72f d7be
00000260: 7048 853e e14e 9c3e 8b27 4e3e 359a c7bd
00000270: b99f 023f 9ece 6d3e 6ab0 7fbd b55f c4be
00000280: c3d8 b7be 10f0 bdbe f186 d5be 109d 2b3e
00000290: 7980 ddbe a371 be3e 9a73 90bc 0b3e 14be
000002a0: f059 7c3a 5a52 c7be d0b1 9c3e 05c6 b2be
000002b0: 3d56 d0be b8dc 7f3e 377d 82be 4139 95bc
000002c0: f60d df3e e124 ddbe 16dc cb3e 3c0c 8ebe
000002d0: cd9f ac3e 52f4 e1be 2691 9fbd 97f4 0cbe
000002e0: 7a0b a73e f0b8 bc3e 1b57 a33d 0a3f b93e
000002f0: 35ce 513e 2bf9 98be c70c 883e 7981 38be
00000300: 1132 cd3d 289b 22be e7c1 303c a4d0 8f3e
00000310: 149f c83e 8c0c 3f3e 059e 94be 104e 853e
00000320: 080b a03e ad73 6fbe 77f5 073e 1281 d9be
00000330: eabb babe 44dd a93e ce2f aebe bf13 27be
00000340: b750 343f a497 6abe f205 a3bd 8f41 9a3d
00000350: 48b0 013e 32b1 c83d 3265 d7be 8067 14be
00000360: 4edc a93e 1f2a 5b3d c5ab 0fbe 4775 d73e
00000370: 12eb 8ebc 1230 353e 0d60 d03e 84b0 21be
00000380: ba9b 013f 8583 bb3d a3a9 91bd 42ed 9cbe
00000390: 99db ae3e 41a7 06bf b83c c2be dc53 5dbd
000003a0: 5336 05be 3673 d53d 912f 3bbe 22e4 93be
000003b0: 763e a7bd cd57 093f 4153 e93e b76a 30be
000003c0: 8479 1a3e a133 eb3c b751 eabe 5070 b03e
000003d0: 373f 1d3e b3cc b93e cd95 823e ceb1 edbe
000003e0: f13e b5be a14e 95be 2a7b a53e ceb9 613e
000003f0: ade9 e83e 8b75 66be 500e bebe 9629 d33d

bias f4 [320]
0.010359892 0.13472179 -0.27115837 -0.28451005 0.29799095 -0.12714683 -0.32571495 -0.19968878
-0.00915502 -0.33369458 -0.15513305 -0.12165835 -0.4757117 -0.44289047 -0.30584875 -0.2481874
0.3888842 0.017826548 -0.013204359 -0.36096355 -0.17600147 0.24842739 -0.10997743 0.23943269
0.03903953 -0.10045372 -0.47017458 -0.09220148 0.1602592 0.007973742 -0.023533942 0.47886476
-0.117451 0.17772023 0.35957688 0.45062315 0.3416227 0.18301761 0.44973728 -0.11606863
-0.13259144 0.47587723 -0.26075408 0.009445974 0.2811804 -0.12386124 0.37412933 0.018380577
0.54022187 -0.5477642 -0.3983453 0.06192044 -0.49944073 -0.3460949 0.5400457 -0.47672582
-0.07432089 0.39944097 0.31022742 0.26623815 0.32383418 -0.35302207 -0.29451293 0.24296677
-0.26385945 0.16170895 0.09755865 -0.049895234 -0.0437046 0.3232403 0.21470672 -0.02043421
0.07914503 -0.50733954 0.36316675 0.42177197 -0.369867 -0.41788295 0.1263949 -0.45039162
0.19307546 -0.3505382 -0.28293994 0.45203316 0.039696533 0.03472343 -0.5388045 0.039675597
0.3594472 -0.48345783 -0.42816663 0.05636171 -0.057090566 0.31080252 -0.13229272 -0.13424486
0.3363399 0.2206644 0.26450813 -0.17936903 0.010905582 -0.15008904 0.350704 -0.26470965
-0.3259603 -0.43769082 -0.25697234 0.2697108 0.3343141 0.40141714 0.19822587 0.39829528
-0.35837743 0.1526043 -0.32684293 0.23592587 -0.1007843 0.103300564 -0.36362717 -0.24391457
-0.44386807 -0.023956416 -0.22660686 -0.4086853 0.27966052 0.35942745 0.45739543 0.41213748
-0.57160795 0.18291871 -0.36933333 -0.064407595 0.28368536 0.10059674 0.4035309 0.116130285
-0.2458616 0.06144267 0.38880166 -0.01888615 -0.384805 -0.17354013 -0.26217026 -0.2834717
-0.17503577 0.021329043 0.36274776 -0.7191231 0.24327008 0.21397993 0.35910907 0.07348252
-0.30111453 -0.0036753637 -0.058950752 -0.15609318 0.43084508 0.36469534 0.0014688363 -0.25234112
0.4203771 0.36132726 0.37501884 -0.21300694 -0.52076095 0.11875056 0.33077037 0.035201326
-0.2933022 0.29196915 -0.10516663 -0.22521345 0.42870873 0.055856008 -0.1967125 0.3626756
0.55346435 0.22751401 0.07449778 0.4183468 -0.20831244 -0.23749484 0.3414021 0.10918647
-0.25928006 -0.45337963 0.11442585 0.22441755 -0.17605726 0.1439004 0.070074365 -0.3186896
0.38277116 0.3073538 -0.34287906 -0.15751225 0.3929976 -0.23624603 -0.25519237 -0.34719446
0.39461678 0.45472354 -0.03112981 -0.4317582 -0.40161422 -0.46473783 -0.31802168 0.2599552
-0.40678972 -0.199784 0.1818017 0.54686284 -0.12003299 0.48179346 0.38936934 -0.057361383
-0.34523967 0.19508815 0.1796463 0.26403382 -0.3890306 0.21615249 0.078229934 0.43758923
0.37328878 -0.1355384 -0.0035963198 -0.22773194 0.27957344 0.052837998 -0.2968422 -0.12569264
-0.1996089 -0.11711278 -0.36125344 -0.16268386 -0.06678396 0.095482595 0.27037942 -0.10828393
-0.029836228 0.4225232 0.01096856 -0.31924653 0.07182887 -0.3928197 -0.04413305 -0.10821547
-0.10707815 -0.10103433 0.37841952 0.3866476 0.11804361 0.15568869 0.23721632 0.46605507
00000000: 89bc 293c 82f4 093e 45d5 8abe 4dab 91be
00000010: 4592 983e c732 02be 1cc4 a6be 377b 4cbe
00000020: f0fe 15bc 04da aabe 33db 1ebe 0328 f9bd
00000030: 7c90 f3be 8ac2 e2be 3598 9cbe d624 7ebe
00000040: d41b c73e fb08 923c 1957 58bc 37d0 b8be
00000050: bb39 34be c063 7e3e d93b e1bd d82d 753e
00000060: eae7 1f3d aeba cdbd b9ba f0be 21d4 bcbd
00000070: fd1a 243e 4ca4 023c 41ca c0bc c32d f53e
00000080: 268a f0bd 4bfc 353e 761a b83e 14b8 e63e
00000090: 2ce9 ae3e f868 3b3e f743 e63e 64b5 edbd
000000a0: 0dc6 07be 2ea6 f33e 8f81 85be 49c3 1a3c
000000b0: e1f6 8f3e f6aa fdbd e18d bf3e dd92 963c
000000c0: fb4b 0a3f 463a 0cbf eaf3 cbbe 4aa0 7d3d
000000d0: b2b6 ffbe 5a33 b1be 6f40 0a3f 6815 f4be
000000e0: 8d35 98bd 8783 cc3e 21d6 9e3e 5e50 883e
000000f0: 98cd a53e 4fbf b4be 66ca 96be 48cc 783e
00000100: 9618 87be 0897 253e d4cc c73d f25e 4cbd
00000110: 9803 33bd c17f a53e 14dc 5b3e a565 a7bc
00000120: ca16 a23d 01e1 01bf fef0 b93e 7ff2 d73e
00000130: 355f bdbe c1f4 d5be aa6d 013e bb99 e6be
00000140: 93b5 453e be79 b3be 81dd 90be e470 e73e
00000150: d598 223d 283a 0e3d 17ef 09bf e182 223d
00000160: 7709 b83e c987 f7be a838 dbbe 89db 663d
00000170: ccd7 69bd 8221 9f3e be77 07be 7c77 09be
00000180: be34 ac3e d9f5 613e 9c6d 873e 84ac 37be
00000190: 54ad 323c f1b0 19be 7a8f b33e 0688 87be
000001a0: 45e4 a6be 0319 e0be e191 83be 8917 8a3e
000001b0: 382b ab3e 8c86 cd3e b9fb 4a3e 5ced cb3e
000001c0: 3f7d b7be 4d44 1c3e f557 a7be 8d96 713e
000001d0: 0068 cebd 3f8f d33d 572d babe bec4 79be
000001e0: ad42 e3be 3f40 c4bc a10b 68be 333f d1be
000001f0: aa2f 8f3e e006 b83e bc2f ea3e af03 d33e
00000200: e654 12bf 0b4f 3b3e 4219 bdbe 21e8 83bd
00000210: 353f 913e aa05 ce3d 9a9b ce3e b7d5 ed3d
00000220: 25c3 7bbe 4fab 7b3d 0311 c73e 21b7 9abc
00000230: 2905 c5be 81b4 31be 2e3b 86be 3423 91be
00000240: 943c 33be 3fba ae3c 13ba b93e 7418 38bf
00000250: cb1b 793e 8e1d 5b3e 25dd b73e 017e 963d
00000260: af2b 9abe 5fde 70bb 5876 71bd e4d6 1fbe
00000270: ba97 dc3e 59b9 ba3e f885 c03a db32 81be
00000280: ab3b d73e e3ff b83e 7802 c03e 7e1e 5abe
00000290: 9750 05bf 7e33 f33d bc5a a93e 442f 103d
000002a0: b52b 96be fb7c 953e 9a61 d7bd 5b9e 66be
000002b0: b67f db3e 45c9 643d 006f 49be 9eb0 b93e
000002c0: d7af 0d3f 6ff9 683e 4b92 983d 8d31 d63e
000002d0: db4f 55be d931 73be 42cc ae3e 289d df3d
000002e0: 5bc0 84be 6021 e8be 1a58 ea3d b7cd 653e
000002f0: 5b48 34be a05a 133e 2683 8f3d 492b a3be
00000300: 95fa c33e 7a5d 9d3e d88d afbe e44a 21be
00000310: fb36 c93e 7bea 71be 93a8 82be 79c3 b1be
00000320: 360b ca3e 86d1 e83e f103 ffbc 690f ddbe
00000330: 61a0 cdbe 1ef2 edbe bdd3 a2be d918 853e
00000340: be46 d0be 2d94 4cbe 3a2a 3a3e 34ff 0b3f
00000350: dbd3 f5bd a2ad f63e 6b5b c73e c5f3 6abd
00000360: 41c3 b0be 30c5 473e 33f5 373e 712f 873e
00000370: 052f c7be 1457 5d3e 0437 a03d b20b e03e
00000380: b51f bf3e 94ca 0abe 3cb0 6bbb 9032 69be
00000390: 4024 8f3e a86c 583d b3fb 97be 92b5 00be
000003a0: 4766 4cbe d3d8 efbd 36f6 b8be 9996 26be
000003b0: 07c6 88bd 618c c33d 2c6f 8a3e f7c3 ddbd
000003c0: 1b6b f4bc f654 d83e 7ab5 333c 4874 a3be
000003d0: 041b 933d aa1f c9be dbc4 34bd 13a0 ddbd
000003e0: ca4b dbbd 16eb cebd 34c0 c13e adf6 c53e
000003f0: d9c0 f13d db6c 1f3e d6e8 723e c59e ee3e

weight_ih_l0 f4 [240, 320]
-0.17034474 -0.07005212 0.2792799 -0.13417119 0.03129291 0.039070122 0.058851607 -0.029045029
0.2276082 0.008967682 0.010668258 0.0039599296 0.030744294 0.17566337 -0.12652978 0.02931607
0.100353606 0.02092993 0.04599279 0.04622977 0.03360938 0.033255856 0.08838297 0.017554827
0.13274755 -0.033463515 -0.16582634 0.24645565 0.32872656 -0.030555537 -0.10459796 -0.056107573
0.07707145 -0.03878179 0.33403778 0.24074438 0.22311512 -0.015891766 0.15764947 0.12806128
-0.16220473 0.21973172 0.018313365 -0.13898453 -0.028789148 -0.055693764 0.17886133 -0.048565373
-0.12160739 0.071220346 0.067821115 0.1620842 -0.038697254 0.2753325 0.24944817 0.056473084
0.076143995 0.051264226 0.1620475 0.16284652 0.14521661 0.27616358 -0.010693892 0.03856395
-0.12523171 -0.021045092 0.31360897 0.15357785 -0.1632076 0.18713441 0.02016295 -0.06582889
0.027528401 -0.030217126 -0.017480172 0.030899607 0.22165887 -0.10521117 0.03983055 0.14585204
-0.06514369 -0.13308665 -0.007335902 0.3449313 -0.017047301 0.15983935 0.1200117 -0.1632849
-0.04023986 0.3455621 -0.03193212 0.22464277 -0.10422338 0.29250887 -0.035314474 0.25675252
0.1099484 0.16788824 0.20033216 -0.13139643 0.039789125 -0.08520275 -0.021348178 0.15889157
0.03255516 -0.109048575 0.3922012 0.25364393 0.022139646 0.07328378 0.3446146 -0.016275646
0.16551536 -0.085128665 -0.10302127 -0.15541857 -0.023244783 0.049105708 -0.04032018 -0.028134616
-0.1028791 -0.12478185 -0.030729238 0.06560813 -0.06442908 0.039896674 0.21848184 -0.08324916
0.12480753 0.065732256 -0.114619076 0.0020553772 -0.007562528 -0.030342331 -0.087355204 -0.051944006
-0.046044275 -0.16352502 0.22246006 -0.008911037 -0.15396066 -0.13890262 -0.122813694 0.03483218
0.07242854 0.232537 0.28297254 0.25222787 0.031934686 -0.08926342 0.22510602 -0.09695904
0.12413754 0.31876066 0.058055405 0.22665802 -0.12816626 0.09809805 0.27023518 0.09745382
-0.033035226 0.14790368 0.25090083 -0.02673559 -0.06346378 0.052932944 0.246043 0.23237991
0.05436579 -0.12792876 0.13141048 0.19236754 -0.012214373 -0.02107582 0.32375368 0.17592277
-0.092719294 -0.082501665 -0.094305724 0.1567787 0.02138612 0.16639785 0.10826874 -0.13673808
0.12581643 -0.054853514 0.19245724 0.07564241 0.1579182 0.07938664 -0.0002819193 0.20364226
-0.011066455 -0.14430788 -0.14894465 0.08067547 0.33647126 0.2213575 0.2751782 -0.0016943973
0.15307009 -0.0906067 0.1318635 0.22073668 -0.033964865 0.03236779 0.098157875 -0.09834099
0.05711499 0.070854895 -0.056330785 0.14667705 -0.12124157 -0.081312075 0.38013226 0.2130644
0.1961498 -0.0031111827 0.05532663 -0.15592301 0.041434567 0.023457238 0.008968911 0.08317009
-0.05387283 -0.0819419 0.37176284 -0.073842704 0.32491833 -0.101341136 -0.03333141 0.17770107
0.30788457 -0.045351725 -0.05069547 -0.16061176 0.024683319 -0.028494604 0.21787049 0.09739404
-0.021402681 0.26792333 -0.08320343 0.046998758 -0.013588236 0.37072614 0.15193708 0.18037468
0.08549926 -0.09442181 0.20411886 0.060103714 0.22083366 -0.011520678 -0.064236745 0.1370012
00000000: da6e 2ebe 7c77 8fbd c6fd 8e3e 2c64 09be
00000010: ff2c 003d fe07 203d 620e 713d d7ef edbc
00000020: 2012 693e 2fed 123c ebc9 2e3c 4cc2 813b
00000030: 75db fb3c 19e1 333e 0691 01be 4128 f03c
00000040: 3186 cd3d 3f75 ab3c f062 3c3d 6d5b 3d3d
00000050: fda9 093d 4b37 083d 2102 b53d 24cf 8f3c
00000060: f9ee 073e 0a11 09bd 61ce 29be df5e 7c3e
00000070: d94e a83e 9b4f fabc 7537 d6bd 0ed1 65bd
00000080: a3d7 9d3d a7d9 1ebd 0007 ab3e b285 763e
00000090: 4a78 643e 732f 82bc dd6e 213e 7f22 033e
000000a0: ff18 26be 5a01 613e e905 963c f651 0ebe
000000b0: 38d7 ebbc 251f 64bd 6d27 373e 7cec 46bd
000000c0: 4c0d f9bd f9db 913d cce5 8a3d 67f9 253e
000000d0: 0381 1ebd 62f8 8c3e 576f 7f3e 5250 673d
000000e0: 62f1 9b3d 70fa 513d c8ef 253e 3dc1 263e
000000f0: aab3 143e 5065 8d3e 6f35 2fbc 3cf5 1d3d
00000100: be3c 00be c266 acbc 5b91 a03e 8343 1d3e
00000110: e51f 27be 2aa0 3f3e c52c a53c 4cd1 86bd
00000120: 3e83 e13c e889 f7bc 9432 8fbc 2c21 fd3c
00000130: 8bfa 623e f478 d7bd 5c25 233d 3d5a 153e
00000140: 0e6a 85bd de47 08be 0262 f0bb d69a b03e
00000150: c8a6 8bbc edac 233e b2c8 f53d 2834 27be
00000160: 8dd2 24bd 84ed b03e 41cb 02bd c108 663e
00000170: 1173 d5bd b9c3 953e e9a5 10bd 1175 833e
00000180: a02c e13d e5ea 2b3e e023 4d3e c98c 06be
00000190: ecf9 223d c87e aebd 60e2 aebc 79b4 223e
000001a0: 8f58 053d dc54 dfbd 98ce c83e 9edd 813e
000001b0: 345e b53c ce15 963d 5371 b03e 8154 85bc
000001c0: dc7c 293e f057 aebd d1fc d2bd 0c26 1fbe
000001d0: d86b bebc 1123 493d c626 25bd 917a e6bc
000001e0: 47b2 d2bd a08d ffbd e2bb fbbc 8e5d 863d
000001f0: 65f3 83bd b26a 233d b4b9 5f3e 897e aabd
00000200: 179b ff3d a29e 863d 68bd eabd 82b3 063b
00000210: 15cf f7bb 7b90 f8bc 49e7 b2bd 3dc3 54bd
00000220: ec98 3cbd 1a73 27be 92cc 633e 99ff 11bc
00000230: dda7 1dbe 7d3c 0ebe bf85 fbbd 30ac 0e3d
00000240: 6a55 943d 2e1e 6e3e c7e1 903e 0324 813e
00000250: f2cd 023d bdcf b6bd 3182 663e 7692 c6bd
00000260: d33b fe3d 9934 a33e 81cb 6d3d 0a19 683e
00000270: 043e 03be a1e7 c83d 445c 8a3e de95 c73d
00000280: f24f 07bd 1074 173e 1376 803e 9904 dbbc
00000290: 4cf9 81bd 37d0 583d b2f2 7b3e 00f5 6d3e
000002a0: aaae 5e3d c2ff 02be 7890 063e fffb 443e
000002b0: cb1e 48bc 33a7 acbc 0bc3 a53e 1925 343e
000002c0: 9de3 bdbd a2f6 a8bd 5c23 c1bd 988a 203e
000002d0: f231 af3c 3364 2a3e 00bc dd3d 1105 0cbe
000002e0: 06d6 003e 14ae 60bd 8313 453e 68ea 9a3d
000002f0: 4fb5 213e 7695 a23d 91ce 93b9 9987 503e
00000300: 1450 35bc 72c5 13be f284 18be 2e39 a53d
00000310: f645 ac3e 8aab 623e 28e4 8c3e 8a16 deba
00000320: 68be 1c3e 0190 b9bd 3a07 073e cc08 623e
00000330: be1e 0bbd 1694 043d ff06 c93d 0067 c9bd
00000340: 68f1 693d 5f1c 913d 1cbb 66bd 8232 163e
00000350: 804d f8bd f286 a6bd b2a0 c23e 8e2d 5a3e
00000360: 7edb 483e fce4 4bbb 2d9e 623d 48aa 1fbe
00000370: 4bb7 293d 6529 c03c 57f2 123c 1555 aa3d
00000380: c2a9 5cbd 28d1 a7bd b357 be3e d83a 97bd
00000390: b25b a63e f18b cfbd 8486 08bd 45f7 353e
000003a0: 0ca3 9d3e bbc2 39bd 0ea6 4fbd 6977 24be
000003b0: ac34 ca3c 846d e9bc 7119 5f3e 8776 c73d
000003c0: ad54 afbc 3f2d 893e 8f66 aabd c581 403d
000003d0: 31a1 5ebc d1cf bd3e 6595 1b3e 24b4 383e
000003e0: 3c1a af3d 3960 c1bd 8904 513e 502f 763d
000003f0: 3822 623e 3ac1 3cbc 8e8e 83bd 0b4a 0c3e

weight_hh_l0 f4 [240, 80]
0.1393851 -0.122029625 0.15268956 -0.01968139 -0.0057774065 -0.2598877 -0.1858721 -0.18184683
-0.0023642024 0.019028524 0.11664762 0.04195296 -0.047568813 -0.05751413 0.18907161 0.16707343
-0.08842145 0.1827358 0.045896463 -0.0107051255 -0.084117636 -0.11700562 0.11269855 0.16364995
-0.043466512 -0.25214913 -0.09080355 -0.11979276 -0.08350141 -0.12445237 -0.091067694 -0.07667863
-0.12968135 -0.058256328 -0.1192828 0.0022683425 0.19313282 0.10376901 -0.019601535 -0.2925332
0.07315405 0.07636478 -0.036288954 0.18491393 -0.020434335 0.15938213 0.039713845 0.08088019
-0.08533256 -0.28034604 -0.0042302134 0.17969012 -0.051101424 -0.300278 -0.089889474 -0.1826204
-0.21156204 -0.14513494 -0.103337966 0.11131574 -0.08226896 0.17636377 -0.14226943 -0.15447547
0.07836743 -0.11263839 -0.1668466 -0.082986 -0.1252094 0.018447142 -0.1547339 -0.08554043
-0.23573254 -0.05920239 -0.033005252 0.16316412 -0.21819676 0.0988545 0.11240146 0.094856285
0.10296051 -0.037662573 0.05727412 0.14966099 -0.16795185 -0.08531551 0.08986223 0.13495114
-0.08451163 0.033680197 -0.059592776 -0.18091604 0.073190115 0.12509713 -0.14580655 -0.039060984
-0.0286659 -0.023138687 -0.06554408 -0.0025730813 -0.15162198 0.041971073 -0.041374616 -0.1316657
0.041327212 0.089782 0.0016402779 0.1341703 0.056262545 0.18791504 0.049803726 -0.086707115
0.10540753 0.17358856 0.1793958 0.027580222 -0.026510524 -0.0072774114 0.08014321 0.07153702
-0.017319212 -0.1662221 0.10809799 -0.105249256 0.14926262 0.0013883915 0.04837028 0.1040398
0.022268169 0.012440801 -0.20137352 -0.13808641 0.06894977 -0.11698047 0.041527033 0.17921208
0.18273054 0.19500959 0.10530239 0.10483235 0.04786524 -0.058467273 0.109606974 0.18288046
-0.034881793 0.12886012 0.061032284 -0.061405975 -0.057497356 -0.14679447 0.18459536 0.15878169
-0.012942272 0.17182359 0.049103525 0.07104687 -0.12164612 -0.060638834 -0.048142795 -0.0408865
0.14396547 -0.026245322 0.10993532 0.017706778 -0.07835372 -0.037767805 0.038939103 -0.030678589
-0.030429343 0.055849243 -0.13194333 -0.013031124 -0.021052321 -0.041820288 -0.039561655 -0.04816788
0.04608815 0.12903358 -0.04994551 -0.02104876 0.17653523 0.047109343 -0.13450642 -0.122626424
0.024172219 0.07856133 -0.016214099 0.031391587 0.08153461 0.045181714 -0.090733275 0.026527742
-0.013559653 0.16919512 0.02204895 -0.030926287 0.024704397 0.048633605 -0.028609268 -0.050145157
-0.008382458 -0.010658771 0.12749556 -0.11988188 0.13576509 0.046182033 0.1498964 0.069706246
0.16137613 0.034964345 0.057512198 0.03713993 -0.022099422 -0.12693167 0.16117497 0.053040713
-0.008135092 0.00084571284 0.004156808 0.083974 0.15389018 -0.10707847 0.0848437 0.12978037
-0.03107989 -0.0303854 0.08548141 0.011229761 -0.100508355 -0.17339239 -0.056803368 0.13518524
0.12372009 0.13330334 0.10867734 0.11021306 -0.032859627 0.0017487723 0.096370414 -0.025342451
-0.10292684 0.15099485 -0.05153672 -0.030285167 -0.13147743 -0.030980334 0.06780451 0.1543544
-0.0020515618 0.038143646 -0.13645928 -0.12188155 -0.15060881 0.04909549 -0.008237917 0.012408365
00000000: f8ba 0e3e abea f9bd a75a 1c3e de3a a1bc
00000010: 6650 bdbb 0010 85be 4155 3ebe 0e36 3abe
00000020: bcf0 1abb b5e1 9b3c f3e4 ee3d ded6 2b3d
00000030: 84d7 42bd f093 6bbd fd9b 413e 4c15 2b3e
00000040: 4e16 b5bd 181f 3b3e eefd 3b3d 8d64 2fbc
00000050: de45 acbd a4a0 efbd 7fce e63d da93 273e
00000060: f109 32bd b119 81be 36f7 b9bd e855 f5bd
00000070: ca02 abbd e2e0 febd b381 babd b009 9dbd
00000080: 30cb 04be 309e 6ebd 8a4a f4bd 79a8 143b
00000090: 9cc4 453e d984 d43d 6693 a0bc e9c6 95be
000000a0: cad1 953d 2365 9c3d baa3 14bd 145a 3d3e
000000b0: e865 a7bc 1235 233e fcaa 223d 83a4 a53d
000000c0: d6c2 aebd 8489 8fbe 9a9d 8abb b000 383e
000000d0: ba4f 51bd 0abe 99be f917 b8bd d800 3bbe
000000e0: b8a3 58be 419e 14be dba2 d3bd 82f9 e33d
000000f0: a17c a8bd b498 343e 14af 11be d12e 1ebe
00000100: 1a7f a03d f5ae e6bd d6d9 2abe 90f4 a9bd
00000110: e536 00be 761e 973c 9072 1ebe d22f afbd
00000120: df63 71be 357e 72bd 8430 07bd 7f14 273e
00000130: f96e 5fbe 3a74 ca3d bd32 e63d 0344 c23d
00000140: f6dc d23d 1244 1abd 4598 6a3d bb40 193e
00000150: 92fb 2bbe e6b9 aebd b009 b83d a230 0a3e
00000160: 6f14 adbd 3ff4 093d 8e17 74bd 0e42 39be
00000170: b3e4 953d 7619 003e 504e 15be 69fe 1fbd
00000180: c0d4 eabc 588d bdbc fa3b 86bd 24a1 28bb
00000190: cb42 1bbe dce9 2b3d 6e78 29bd 60d3 06be
000001a0: b946 293d a0df b73d 98fe d63a f063 093e
000001b0: 8e73 663d cd6c 403e fefe 4b3d 8093 b1bd
000001c0: e7df d73d 33c1 313e 88b3 373e ebef e13c
000001d0: 992c d9bc 5a77 eebb 2022 a43d 0082 923d
000001e0: 05e1 8dbc 2036 2abe 7b62 dd3d ec8c d7bd
000001f0: 4dd8 183e b0fa b53a ea1f 463d d212 d53d
00000200: bc6b b63c 80d4 4b3c dc34 4ebe 8666 0dbe
00000210: 8935 8d3d 7593 efbd 4018 2a3d 5f83 373e
00000220: b71d 3b3e 98b0 473e c8a8 d73d 58b2 d63d
00000230: 580e 443d 617b 6fbd 9f79 e03d 0445 3b3e
00000240: 36e0 0ebd e8f3 033e fdfc 793d d584 7bbd
00000250: 5982 6bbd 4a51 16be 9106 3d3e ab97 223e
00000260: d30b 54bc 86f2 2f3e c720 493d 0581 913d
00000270: 9a21 f9bd 6d60 78bd 6131 45bd 9a78 27bd
00000280: af6b 133e 6e00 d7bc c525 e13d ce0d 913c
00000290: ea77 a0bd 6ab2 1abd 9c7e 1f3d aa51 fbbc
000002a0: f546 f9bc 2dc2 643d 271c 07be 7f80 55bc
000002b0: eb75 acbc c04b 2bbd 670b 22bd af4b 45bd
000002c0: eec6 3c3d 6121 043e aa93 4cbd 736e acbc
000002d0: a7c5 343e baf5 403d 0dbc 09be 9023 fbbd
000002e0: d104 c63c c3e4 a03d 6ed3 84bc 7794 003d
000002f0: 9efb a63d 7610 393d 5ed2 b9bd b550 d93c
00000300: 4f29 5ebc 7c41 2d3e 00a0 b43c 2059 fdbc
00000310: e060 ca3c 0834 473d fc5d eabc 0265 4dbd
00000320: 9456 09bc 20a2 2ebc 328e 023e a284 f5bd
00000330: 0106 0b3e 5f29 3d3d 717e 193e 26c2 8e3d
00000340: c93f 253e c636 0f3d e991 6b3d 0a20 183d
00000350: d909 b5bc 60fa 01be 0d0b 253e 3841 593d
00000360: 0d49 05bc d4b2 5d3a d535 883b 8ffa ab3d
00000370: 6395 1d3e f54b dbbd 89c2 ad3d 25e5 043e
00000380: 419b febc cdea f8bc e110 af3d 08fd 373c
00000390: 53d7 cdbd c68d 31be a6aa 68bd 006e 0a3e
000003a0: f560 fd3d ac80 083e 3a92 de3d 63b7 e13d
000003b0: d197 06bd 1037 e53a da5d c53d f99a cfbc
000003c0: 4fcb d2bd 659e 1a3e 2b18 53bd 9918 f8bc
000003d0: 05a2 06be 78ca fdbc 17dd 8a3d 140f 1e3e
000003e0: 7f73 06bb 833c 1c3d fbbb 0bbe 099d f9bd
000003f0: 3239 1abe 5a18 493d 54f8 06bc 744c 4b3c

bias_ih_l0 f4 [240]
0.18679477 -0.0006425753 -0.14764638 -0.14897092 -0.14636613 0.07170373 0.016095847 -0.107369386
0.13134642 0.0391242 0.07459448 0.020558968 0.012727303 -0.04206432 -0.07770648 0.01080674
0.13142812 -0.048760157 -0.082722396 0.13403545 -0.07977962 0.11284688 -0.17027678 0.04980625
0.008158773 -0.044042323 0.0039130044 0.11665852 0.021214256 -0.15080306 -0.05498042 0.06653249
0.12977076 -0.0035660213 -0.053133212 -0.13790794 -0.061831992 -0.24505699 -0.17011714 0.07826028
-0.0044275527 -0.10086976 -0.14769709 -0.034245234 0.029957987 0.14217891 -0.109035976 0.0075877234
0.006830213 -0.12507571 0.12951258 -0.0008744626 0.0019587222 -0.11856223 -0.29534447 -0.026874112
-0.09821687 0.083342254 -0.1647872 -0.13793068 0.17208084 0.08009269 -0.14450146 -0.13978432
0.12637608 0.026545696 -0.13281439 -0.15751015 -0.15637244 0.053947568 0.13811623 -0.09522877
-0.037490763 -0.02785281 -0.0863668 0.033551995 0.032524746 0.1379618 0.0018970474 -0.16785228
-0.13065267 -0.04179302 0.06062005 -0.10640634 -0.12791862 0.020532101 0.21165866 -0.16916914
0.06530913 0.0860907 -0.118559614 -0.003096818 -0.19681114 0.094062425 0.12907617 0.059291936
-0.0043562055 0.009059557 0.08429071 -0.031218307 -0.123604015 0.008522571 0.083417654 -0.041518018
-0.17291561 -0.07583337 0.06990511 -0.16766346 -0.124710046 0.11743477 -0.043419853 -0.010424764
-0.12624253 -0.08470116 -0.025471918 0.0417504 0.04999167 0.040277563 -0.04420463 0.16748266
-0.14302592 -0.006734503 0.031017112 0.12863202 -0.095360905 -0.049804993 0.02856184 0.15889874
-0.011689892 0.026820637 -0.06691599 0.19378735 -0.12507762 -0.037512444 -0.032691196 0.076818585
-0.03310889 -0.061412945 -0.0027241139 0.105422616 0.046584252 0.007395631 -0.10733013 0.06945925
0.022513747 0.020562265 0.0053621028 -0.15884934 0.067536734 -0.08312448 -0.05780146 0.0022486534
0.0039028965 0.20268983 -0.09386203 -0.0068278606 -0.08683933 0.020499123 -0.031704627 0.02414611
0.091115795 -0.24035463 -0.0064698085 -0.016753629 0.10338232 -0.1323844 0.11359517 -0.105226584
0.0609567 -0.14872524 0.0555668 0.14298221 0.014697177 -0.07335023 0.16448696 0.037104588
-0.16097619 0.19748683 -0.11327692 -0.0862591 -0.057267636 -0.07897246 0.06662048 -0.018803723
0.044173405 -0.010850258 0.13697037 -0.02500071 0.035885125 0.01478019 -0.03643565 0.009789506
-0.106821954 0.04196956 -0.12773235 0.040474325 0.13553856 0.13039787 -0.17398478 -0.11011173
0.14181998 -0.072591126 -0.01879185 -0.021563524 -0.053420365 -0.017500766 -0.11953411 -0.0043838676
0.00809783 -0.2395462 0.17112932 0.0377649 -0.042345744 0.035154074 0.021255177 -0.08139393
-0.06037734 -0.14065304 -0.09537178 -0.04118673 0.03042002 0.15257086 -0.002423559 -0.17360185
-0.036852013 -0.16658244 0.02822805 0.14709415 0.12117077 0.14947575 -0.1659482 -0.061072897
-0.14581978 -0.0019497981 0.021395419 0.05603781 -0.20139974 0.16766675 0.18844037 0.074900076
00000000: 2147 3f3e 8072 28ba 9d30 17be d58b 18be
00000010: 01e1 15be 68d9 923d 70db 833c 7be4 dbbd
00000020: ad7f 063e b240 203d fec4 983d 486b a83c
00000030: 2e86 503c a34b 2cbd 9324 9fbd c10e 313c
00000040: 1895 063e bbb8 47bd 5c6a a9bd 9740 093e
00000050: 7f63 a3bd 441c e73d 095d 2ebe a301 4c3d
00000060: 60ac 053c b965 34bd a938 803b aaea ee3d
00000070: 85c9 ad3c 1e6c 1abe 2633 61bd 3042 883d
00000080: a0e2 043e e9b3 69bb 36a2 59bd bd37 0dbe
00000090: 8b43 7dbd 38f0 7abe 3033 2ebe ed46 a03d
000000a0: 0115 91bb ce94 cebd e83d 17be bb44 0cbd
000000b0: 746a f53c 5997 113e 414e dfbd 70a2 f83b
000000c0: fbcf df3b d913 00be f29e 043e 313c 65ba
000000d0: e85d 003b c1d0 f2bd 6437 97be 1927 dcbc
000000e0: ed25 c9bd 58af aa3d fabd 28be b33d 0dbe
000000f0: f635 303e a307 a43d 31f8 13be 9f23 0fbe
00000100: bb68 013e 5c76 d93c 7f00 08be 574a 21be
00000110: 1920 20be 20f8 5c3d 576e 0d3e 4d07 c3bd
00000120: ea8f 19bd 942b e4bc 14e1 b0bd d16d 093d
00000130: ab38 053d dc45 0d3e 59a6 f83a 78e1 2bbe
00000140: d0c9 05be 282f 2bbd bb4c 783d 91eb d9bd
00000150: 19fd 02be f032 a83c 0cbd 583e ad3a 2dbe
00000160: cbc0 853d 5250 b03d 62cf f2bd fcf3 4abb
00000170: dc88 49be cda3 c03d 8b2c 043e 1adc 723d
00000180: 80be 8ebb 896e 143c 9ca0 ac3d 89bd ffbc
00000190: 1a24 fdbd 41a2 0b3c e0d6 aa3d cc0e 2abd
000001a0: ca10 31be 874e 9bbd 692a 8f3d f8af 2bbe
000001b0: fb67 ffbd a481 f03d 04d9 31bd a1cc 2abc
000001c0: b945 01be cd77 adbd 7caa d0bc 7802 2b3d
000001d0: 11c4 4c3d 16fa 243d ea0f 35bd 9380 2b3e
000001e0: 6375 12be 1bad dcbb 9917 fe3c 1db8 033e
000001f0: 944c c3bd 5200 4cbd 85fa e93c 5ab6 223e
00000200: f686 3fbc f4b6 db3c 400b 89bd 3170 463e
00000210: 5914 00be a6a6 19bd 34e7 05bd 1053 9d3d
00000220: 309d 07bd 248c 7bbd 0c87 32bb d0e7 d73d
00000230: 21cf 3e3d 0d57 f23b e6cf dbbd a740 8e3d
00000240: c06e b83c 3272 a83c 94b4 af3b 67a9 22be
00000250: b350 8a3d 2b3d aabd 39c1 6cbd 255e 133b
00000260: bdc7 7f3b ec8d 4f3e bc3a c0bd 3fbc dfbb
00000270: d2d8 b1bd c7ed a73c b6dc 01bd 10ce c53c
00000280: eb9a ba3d 861f 76be b000 d4bb e83e 89bc
00000290: 1cba d33d c78f 07be 96a4 e83d 0981 d7bd
000002a0: bcad 793d 6e4b 18be 039a 633d ee69 123e
000002b0: 6ecc 703c a538 96bd 456f 283e fbfa 173d
000002c0: f1d6 24be fd39 4a3e bbfd e7bd 9ca8 b0bd
000002d0: 7891 6abd 50bc a1bd 5170 883d 440a 9abc
000002e0: 2cef 343d 48c5 31bc f641 0c3e 4ace ccbc
000002f0: 48fc 123d 9c28 723c 8c3d 15bd 2a64 203c
00000300: 78c5 dabd 46e8 2b3d 45cc 02be 68c8 253d
00000310: 9fca 0a3e 0587 053e 1129 32be 4282 e1bd
00000320: 4239 113e a8aa 94bd 5ef1 99bc fda5 b0bc
00000330: 50cf 5abd c45d 8fbc 4dce f4bd 8ca6 8fbb
00000340: c3ac 043c 994b 75be 863c 2f3e 5eaf 1a3d
00000350: bb72 2dbd b8fd 0f3d 561f ae3c dcb1 a6bd
00000360: 3b4e 77bd 5a07 10be 4852 c3bd 6bb3 28bd
00000370: 6833 f93c 893b 1c3e 93d4 1ebb afc4 31be
00000380: 23f2 16bd 9694 2abe 833e e73c d99f 163e
00000390: 6128 f83d 2c10 193e 53ee 29be 9327 7abd
000003a0: c851 15be 5e90 ffba 7245 af3c e787 653d
000003b0: bc3b 4ebe d5b0 2b3e 83f6 403e 3665 993d

bias_hh_l0 f4 [240]
0.10774203 -0.1681067 -0.0076724654 0.0058490853 -0.11241717 0.05849891 -0.082527645 -0.053530794
0.028209105 0.012124068 0.0038954832 -0.08459782 -0.04999025 0.107852295 -0.035060927 -0.12401954
0.028550632 -0.13406862 -0.047329642 -0.04754565 -0.15104736 -0.016172258 -0.14168009 -0.12491118
-0.07405489 -0.22912051 -0.10302099 0.07170771 -0.06532021 -0.02967146 -0.15158443 -0.052615657
0.079306915 -0.0784307 -0.08876469 -0.022493238 -0.1754989 -0.10078837 -0.06395883 0.105706796
-0.10519073 0.038371235 -0.08435593 -0.014545908 -0.023216713 0.15430814 -0.12178712 0.048431963
-0.06538841 0.03324169 0.122089826 -0.13695216 -0.12817213 -0.1413532 -0.27135548 -0.0446805
-0.058613658 0.054633018 -0.03075103 -0.034168087 0.03267455 -0.01912681 -0.061475497 -0.1574125
0.27420658 0.068830095 0.016287465 -0.05751709 -0.0058173463 0.14613931 0.13659905 -0.12162959
0.084980346 -0.097359866 -0.08801748 0.025164243 0.0051534884 0.029905109 -0.1481248 -0.06057859
-0.15868482 -0.107393675 0.04650871 -0.14668903 0.040399466 -0.00063163013 0.13941783 -0.13970618
-0.066900335 0.14110854 -0.11469026 -0.03033604 -0.18699615 -0.035111465 0.15730326 -0.011825087
0.0008230349 0.012331671 0.0073865205 -0.015668273 -0.08559274 0.038222913 0.10666144 -0.10538033
-0.21528149 -0.029035728 0.18712765 -0.11696331 -0.09074308 0.013299531 0.10318649 0.012562524
-0.14101711 -0.0003676508 0.15585916 0.13386959 -0.0054997765 0.07516178 -0.040680505 0.006176767
0.041512568 -0.0008316572 -0.0026681533 -0.011869084 -0.15313888 0.10160255 0.22924593 0.08365131
-0.027394379 0.04178705 -0.04411961 0.17224868 -0.13379261 0.018991625 0.030536164 0.066909276
0.009679523 -0.1715434 -0.1622561 0.1234175 0.20399354 -0.022337582 -0.1564869 -0.028323011
-0.083291724 -0.14738242 -0.09082741 -0.09764092 0.062197424 -0.018186476 -0.16008507 -0.03110961
-0.07114053 0.04390799 -0.07641561 0.17865303 -0.025634538 -0.12988837 -0.03725077 -0.07314316
0.12579764 0.00029732042 -0.10278326 0.025373055 -0.13898468 0.067324035 0.050433036 -0.12833178
0.060794022 -0.12751314 0.016104992 -0.07965088 -0.089393735 -0.15266506 0.1372553 -0.057722803
-0.13334723 -0.014080407 0.0662273 -0.07119374 -0.05591765 -0.10019048 0.070491634 0.012934293
0.03147113 0.0017707502 0.035061643 -0.12534818 -0.031019494 -0.16349977 -0.08485782 -0.2636906
-0.14684477 -0.07981617 -0.10867238 -0.015059758 0.17205366 0.06940782 0.050814908 -0.11492136
0.011656546 0.04978984 -0.13454853 0.051860336 0.0061956802 -0.03208886 -0.14120828 0.09974192
-0.14220823 -0.05102657 0.016344722 -0.09890922 -0.08237591 -0.13182327 0.05030138 0.024545383
0.051328782 0.020516943 0.025631143 -0.12868218 0.06566358 0.13992883 0.015971072 -0.16906273
-0.2377376 -0.019444501 -0.13858855 -0.14455502 -0.018624762 0.07279659 -0.14659758 -0.034013156
-0.1615656 -0.010443221 -0.16830467 -0.05369687 -0.029353408 0.04782108 -0.023526784 -0.016839847
00000000: daa7 dc3d 2a24 2cbe 4e69 fbbb afa9 bf3b
00000010: f93a e6bd 8e9c 6f3d 4104 a9bd 1b43 5bbd
00000020: c816 e73c 07a4 463c 5d4b 7f3b 9f41 adbd
00000030: 94c2 4cbd aae1 dc3d 0c9c 0fbd f5fd fdbd
00000040: 04e3 e93c 4949 09be badc 41bd 3abf 42bd
00000050: 29ac 1abe af7b 84bc 9614 11be 6fd1 ffbd
00000060: 17aa 97bd 919e 6abe abfc d2bd 7edb 923d
00000070: 9ac6 85bd 9011 f3bc f338 1bbe 8483 57bd
00000080: aa6b a23d 46a0 a0bd 43ca b5bd bd43 b8bc
00000090: fcb5 33be 226a cebd d9fc 82bd ce7c d83d
000000a0: 3d6e d7bd 282b 1d3d cdc2 acbd f651 6ebc
000000b0: fa30 bebc f402 1e3e 876b f9bd 9860 463d
000000c0: 5cea 85bd 7028 083d 3b0a fa3d 303d 0cbe
000000d0: 8e3f 03be e5be 10be 1bef 8abe e602 37bd
000000e0: e014 70bd dfc6 5f3d 96e9 fbbc d6f3 0bbd
000000f0: c0d5 053d d4af 9cbc bbcd 7bbd be30 21be
00000100: ce64 8c3e cbf6 8c3d 4a6d 853c 0a97 6bbd
00000110: 709f bebb 8ba5 153e 9fe0 0b3e ef18 f9bd
00000120: 2d0a ae3d 9c64 c7bd 8242 b4bd 3e25 ce3c
00000130: 98de a83b 8ffb f43c 07ae 17be 4121 78bd
00000140: 467e 22be 37f1 dbbd eb7f 3e3d a635 16be
00000150: e979 253d fb93 25ba 8cc3 0e3e 230f 0fbe
00000160: 0b03 89bd c27e 103e bae2 eabd 4983 f8bc
00000170: eb7b 3fbe 0ad1 0fbd 1b14 213e 02be 41bc
00000180: f0c0 573a c70a 4a3c a00a f23b c05a 80bc
00000190: 3f4b afbd a18f 1c3d 5071 da3d a4d1 d7bd
000001a0: c072 5cbe 56dc edbc 649e 3f3e 768a efbd
000001b0: 82d7 b9bd 47e6 593c 7053 d33d 0bd3 4d3c
000001c0: ca66 10be 41c1 c0b9 8b99 1f3e 1c15 093e
000001d0: 7837 b4bb 6bee 993d 9aa0 26bd 7a66 ca3b
000001e0: 1509 2a3d 9203 5aba 2fdc 2ebb 8c76 42bc
000001f0: 70d0 1cbe ff14 d03d 72bf 6a3e 6151 ab3d
00000200: 2d6a e0bc e628 2b3d c4b6 34bd f561 303e
00000210: ee00 09be 5394 9b3c fa26 fa3c bb07 893d
00000220: dd96 1e3c 13a9 2fbe 7726 26be 50c2 fc3d
00000230: afe3 503e 4efd b6bc 1a3e 20be a905 e8bc
00000240: da94 aabd 6beb 16be b903 babd f6f7 c7bd
00000250: bac2 7e3d cefb 94bc 57ed 23be 95d9 febc
00000260: 20b2 91bd ddd8 333d ca7f 9cbd d2f0 363e
00000270: 86ff d1bc 7501 05be 4394 18bd 15cc 95bd
00000280: 19d1 003e ace1 9b39 0880 d2bd 27db cf3c
00000290: 0052 0ebe 2fe1 893d df92 4e3d 6869 03be
000002a0: 2703 793d ce92 02be 9eee 833c 0020 a3bd
000002b0: 1014 b7bd 3b54 1cbe a78c 0c3e bf6e 6cbd
000002c0: 2d8c 08be 82b1 66bc 2ea2 873d 06ce 91bd
000002d0: e809 65bd ab30 cdbd eb5d 903d 5bea 533c
000002e0: dfe7 003d 8418 e83a cc9c 0f3d 465b 00be
000002f0: 981c febc 7c6c 27be f0c9 adbd 7402 87be
00000300: 7a5e 16be a976 a3bd a08f debd 34bd 76bc
00000310: d62e 303e b025 8e3d 4b23 503d e45b ebbd
00000320: 19fb 3e3c 6ef0 4b3d 17c7 09be 816b 543d
00000330: 2205 cb3b 9c6f 03bd e798 10be 7e45 cc3d
00000340: 099f 11be 3d01 51bd 5ee5 853c eb90 cabd
00000350: b3b4 a8bd aefc 06be d208 4e3d 6613 c93c
00000360: 213e 523d 2613 a83c 67f8 d13c 43c5 03be
00000370: a17a 863d 8149 0f3e c4d5 823c c81e 2dbe
00000380: 7c71 73be 134a 9fbc 28ea 0dbe 3b06 14be
00000390: f592 98bc 6116 953d ad1d 16be 6151 0bbd
000003a0: 7471 25be 0b1a 2bbc 0f58 2cbe 40f1 5bbd
000003b0: 8f76 f0bc 09e0 433d 3ebb c0bc b8f3 89bc

weight f4 [16, 80]
-0.009334714 -0.012158948 -0.077503234 0.04833522 -0.17016824 -0.017997384 -0.017214883 -0.038665496
-0.08863069 0.02083971 -0.09496528 -0.0385626 -0.0077251433 0.10295948 -0.025992777 -0.08998954
-0.013398162 -0.12307092 -0.017210294 -0.038877558 0.11532753 0.05190964 0.029135177 0.07676424
0.09751043 0.10598102 -0.071065575 0.044733938 0.0025209324 0.023636432 -0.002966766 0.015902828
-0.02432289 0.10915509 0.14142014 0.109994955 -0.009426651 -0.08896462 0.055009644 -0.024030244
0.023458581 -0.12622806 0.042371817 -0.16385552 0.110502005 -0.107591294 0.1499747 0.14279357
-0.0032182569 -0.14994164 -0.048500616 -0.02385405 0.11090283 0.05102032 0.13417782 0.052972253
0.05316372 0.11317823 0.0070196157 0.033481475 0.020243417 -0.16301642 0.052135825 0.04433611
-0.101391606 0.13794163 -0.025234936 0.1483391 -0.010269448 -0.0067650066 0.07404587 0.036993716
0.0037726017 0.10037255 -0.080623634 0.13539946 -0.050777987 0.03205525 0.032573886 -0.03275666
-0.036588933 0.10183317 0.004798038 -0.032219786 -0.042542975 0.0032493218 0.003609989 -0.101333156
-0.14384654 -0.15893617 -0.12381668 -0.059418343 0.0029302763 -0.003488149 0.15879424 -0.025622861
-0.072015196 -0.14168315 -0.09466296 0.146598 0.004164473 -0.005750298 -0.019906202 -0.026318751
0.051646125 0.037458748 -0.023805335 -0.014802407 -0.16574064 0.017593699 -0.058943354 0.04057234
-0.017158015 -0.018191671 0.034373753 0.1487334 0.00845993 -0.10353637 0.043693475 -0.037589334
0.03390224 0.026807731 0.15318951 -0.1617734 0.0022822942 -0.008911067 0.04318531 0.07687242
0.12850073 -0.11789979 0.049649045 -0.11839805 -0.06176589 -0.041912053 -0.01964875 -0.08679046
-0.09212709 -0.00017349016 -0.1120822 -0.04075925 0.15556923 -0.113338396 -0.09636708 0.11240861
0.0022757358 0.11708803 0.0031192445 0.030134695 -0.043467592 -0.11313581 -0.06535494 -0.091036454
0.038004883 0.17112249 0.025230994 0.10280913 -0.13038446 -0.03871382 0.030045599 -0.047254227
0.04285892 0.037881102 -0.16769299 -0.144515 -0.019002022 -0.04724817 0.029586772 -0.053214297
-0.08739416 0.0038782323 -0.15963042 -0.14317137 0.02216047 -0.027703505 0.10921058 0.016340507
-0.0452287 -0.09452962 -0.15078855 0.17045286 -0.04734524 -0.035836726 0.030641586 -0.03772452
-0.10909265 -0.0401895 -0.018464342 0.0185658 -0.10368595 0.03863713 0.015721083 0.15747333
0.07835169 -0.02882102 -0.017868714 -0.038675085 -0.11897172 -0.16527706 0.08880422 0.015172427
0.029919868 -0.032156292 -0.040184695 -0.09471425 0.06588369 -0.060303584 0.14187488 0.072108634
0.033757273 -0.14495425 -0.14976092 -0.13542658 0.14969842 -0.016066035 0.11777517 -0.102725245
-0.14277622 0.088355534 -0.13535814 0.15304695 0.10199876 -0.024869118 -0.0008785984 -0.035238076
-0.03785638 0.11063612 -0.044793945 0.067235835 0.029363168 -0.03876698 -0.14207593 0.037425943
0.07524359 0.10417207 -0.10054634 0.1257488 0.020844294 -0.040340766 0.03558874 -0.025511397
-0.3558675 0.2575022 -0.0011988954 -0.10147993 0.05479708 -0.17295498 -0.029895656 -0.02394422
0.13107559 -0.101444 0.114237316 -0.005418323 0.034673046 0.049357854 0.1516028 0.026915124
00000000: a1f0 18bc 5336 47bc 04ba 9ebd 27fb 453d
00000010: 9540 2ebe 406f 93bc 3a06 8dbc b65f 1ebd
00000020: 0284 b5bd 0ab8 aa3c 287d c2bd d1f3 1dbd
00000030: 3323 fdbb 6bdc d23d ceee d4bc 704c b8bd
00000040: f783 5bbc 9b0c fcbd 9afc 8cbc 133e 1fbd
00000050: d730 ec3d 349f 543d e5ac ee3c 9236 9d3d
00000060: 8cb3 c73d 940c d93d d48a 91bd ef3a 373d
00000070: 3a36 253b 31a1 c13c 136e 42bb a646 823c
00000080: cc40 c7bc b48c df3d 71d0 103e 0945 e13d
00000090: 3d72 1abc 1533 b6bd cb51 613d 13db c4bc
000000a0: 362c c03c ee41 01be 128e 2d3d bec9 27be
000000b0: e04e e23d d358 dcbd f892 193e 7a38 123e
000000c0: 64e9 52bb 4d8a 19be 95a8 46bd 9269 c3bc
000000d0: 0621 e33d affa 503d e965 093e 6ff9 583d
000000e0: 33c2 593d fdc9 e73d ce04 e63b df23 093d
000000f0: 86d5 a53c c7ed 26be 608c 553d c899 353d
00000100: 67a6 cfbd 9240 0d3e 7fb9 cebc 34e6 173e
00000110: 3041 28bc fdac ddbb 5ca5 973d b986 173d
00000120: c13d 773b 2090 cd3d 011e a5bd 28a6 0a3e
00000130: 94fc 4fbd 5e4c 033d 326c 053d d92b 06bd
00000140: 47de 15bd e98d d03d dc38 9d3b e5f8 03bd
00000150: 8b41 2ebd 93f2 543b 9195 6c3b c287 cfbd
00000160: 824c 13be 2ac0 22be 9993 fdbd a660 73bd
00000170: e109 403b 6e99 64bb f59a 223e 09e7 d1bc
00000180: b47c 93bd 6315 11be a7de c1bd c91d 163e
00000190: 2276 883b ff6c bcbb 5512 a3bc 6c9a d7bc
000001a0: e38a 533d 586e 193d 6803 c3bc cb85 72bc
000001b0: eab7 29be a920 903c 966e 71bd 2f2f 263d
000001c0: f78e 8cbc b306 95bc 7ecb 0c3d 924d 183e
000001d0: 859b 0a3c e00a d4bd eef7 323d 46f7 19bd
000001e0: 13dd 0a3d e39b db3c b6dd 1c3e eda7 25be
000001f0: 8b92 153b b9ff 11bc 14e3 303d 4a6f 9d3d
00000200: b295 033e 7275 f1bd cc5c 4b3d ad7a f2bd
00000210: 3bfe 7cbd f9ab 2bbd 6af6 a0bc 32bf b1bd
00000220: 21ad bcbd e9ea 35b9 5a8b e5bd 2cf3 26bd
00000230: 8a4d 1f3e f61d e8bd 1b5c c5bd 7c36 e63d
00000240: 8324 153b d9cb ef3d 3d6c 4c3b 09dd f63c
00000250: 130b 32bd bfb3 e7bd d0d8 85bd 5271 babd
00000260: 02ab 1b3d bc3a 2f3e 3bb1 ce3c 988d d23d
00000270: 8183 05be 6292 1ebd 3022 f63c a68d 41bd
00000280: d68c 2f3d 3729 1b3d b6b7 2bbe bdfb 13be
00000290: 21aa 9bbc 4c87 41bd f55f f23c 3cf7 59bd
000002a0: b6fb b2bd f129 7e3b 2876 23be 849b 12be
000002b0: e089 b53c 76f2 e2bc cca9 df3d 87dc 853c
000002c0: bb41 39bd bf98 c1bd 5068 1abe 328b 2e3e
000002d0: 15ed 41bd 88c9 12bd 1004 fb3c 0785 1abd
000002e0: f86b dfbd bf9d 24bd 8842 97bc 4e17 983c
000002f0: 4d59 d4bd f841 1e3d 80c9 803c b040 213e
00000300: da76 a03d 0f1a ecbc 6961 92bc c469 1ebd
00000310: 72a7 f3bd 643e 29be fdde b53d c595 783c
00000320: 831a f53c 51b6 03bd b598 24bd 8bf9 c1bd
00000330: 07ee 863d e400 77bd a647 113e b1ad 933d
00000340: 1145 0a3d e36e 14be ed5a 19be 44ad 0abe
00000350: 8b4a 193e eb9c 83bc 1c34 f13d 9d61 d2bd
00000360: ee33 12be bff3 b43d 539b 0abe 57b8 1c3e
00000370: bae4 d03d 52ba cbbc be51 66ba cd55 10bd
00000380: 4b0f 1bbd 3195 e23d db79 37bd f1b2 893d
00000390: 078b f03c 20ca 1ebd 5a7c 11be f24b 193d
000003a0: 5019 9a3d 2b58 d53d 3deb cdbd 4bc4 003e
000003b0: a7c1 aa3c 5c3c 25bd 80c5 113d 47fd d0bc
000003c0: 4434 b6be 54d7 833e 4124 9dba b6d4 cfbd
000003d0: e772 603d 1c1b 31be bce7 f4bc ab26 c4bc
000003e0: ae38 063e dfc1 cfbd 41f5 e93d 308c b1bb
000003f0: 5305 0e3d 762b 4a3d c43d 1b3e 1b7d dc3c

bias f4 [16]
-0.12537566 -0.116875365 -0.01688254 0.05375847 0.013239798 -0.13490126 0.09270941 -0.15538858
0.11316875 0.012635669 -0.07656851 -0.1327411 -0.034698382 0.032677144 -0.08885883 -0.10128688
00000000: 7a62 00be 5a5c efbd 414d 8abc d731 5c3d
00000010: bdeb 583c 8e23 0abe 6ede bd3d 2f1e 1fbe
00000020: 05c5 e73d d605 4f3c f3cf 9cbd 48ed 07be
00000030: e41f 0ebd 78d8 053d 9efb b5bd 7f6f cfbd

weight f4 [4, 16]
-0.20131762 0.10126545 -0.0128723495 0.07718517 -0.19181626 -0.059639543 0.20752552 -0.046023116
-0.010391274 -0.28469318 0.016571755 0.06464159 -0.2452175 -0.06434291 -0.24861205 0.1661889
-0.09364731 0.17738537 0.079660535 -0.14141577 0.1540419 0.07763851 0.19768047 -0.13204183
-0.39064437 -0.26064917 0.02592162 0.12330999 -0.30896863 -0.18445832 0.10191754 0.0392931
0.14291799 0.07317914 -0.06770711 -0.031017223 0.10711193 0.046651866 -0.13639751 0.06142615
-0.219753 0.09194639 -0.036192574 0.1430667 -0.07974855 -0.29329306 0.1378861 -0.015633324
0.077032454 -0.24424171 0.18963413 -0.27621526 0.080560446 -0.3152158 -0.12821521 0.17743759
0.0422913 -0.0033015332 0.15992235 -0.048566803 0.15808907 -0.21119164 0.103179835 -0.036743037
00000000: 3526 4ebe 4364 cf3d 8ce6 52bc 4213 9e3d
00000010: 7b6b 44be 9848 74bd 9281 543e bc82 3cbd
00000020: 2940 2abc 4ec3 91be 7dc1 873c cf62 843d
00000030: 4c1a 7bbe 37c6 83bd 2894 7ebe 6c2d 2a3e
00000040: 29ca bfbd 83a4 353e 1025 a33d 4ccf 10be
00000050: 29bd 1d3e f000 9f3d c06c 4a3e f935 07be
00000060: 8a02 c8be cf73 85be 9459 d43c f389 fc3d
00000070: 2331 9ebe a4e2 3cbe 25ba d03d cdf1 203d
00000080: 1859 123e f2de 953d 06aa 8abd d517 febc
00000090: 805d db3d 0716 3f3d caab 0bbe fd99 7b3d
000000a0: ee06 61be 644e bc3d aa3e 14bd 1480 123e
000000b0: 3553 a3bd 822a 96be 0432 0d3e 7511 80bc
000000c0: 31c3 9d3d 801a 7abe 732f 423e 166c 8dbe
000000d0: e0fc a43d f763 a1be d94a 03be 33b2 353e
000000e0: a439 2d3d 895e 58bb afc2 233e fced 46bd
000000f0: 1ae2 213e 9f42 58be f34f d33d de7f 16bd

bias f4 [4]
-0.03245957 -0.10813459 -0.17133173 0.10164744
00000000: 53f4 04bd ab75 ddbd 9671 2fbe 882c d03d

H f4 [2, 2]
1.0 0.0 0.0 1.0
00000000: 0000 803f 0000 0000 0000 0000 0000 803f

hn f4 [1, 1, 80]
1.0 -1.0 -2.861023e-05 -1.0 1.0 -1.0 -1.0 -1.0
1.0 -1.4305115e-06 1.0 1.0 -1.0 -1.0 1.0 -7.1525574e-06
-1.0 1.0 1.0 -1.0 -1.0 -1.0 1.0 1.0
-0.0013221502 -1.0 2.3841858e-06 -1.0 -1.0 -1.0 -1.0 1.0
-1.0 -1.0 -1.0 -3.0994415e-06 1.0 1.0 -1.0 -1.0
1.0 -9.059906e-06 -1.0 1.0 -1.0 1.0 -4.7683716e-07 1.0
-1.0 -1.0 1.0 1.0 -1.0 -1.0 -1.0 -1.0
-1.0 -1.0 -1.0 0.0 -1.0 1.0 -1.0 -1.0
1.0 -1.0 -1.0 -1.0 0.0 1.0 -1.0 -1.0
-1.0 -1.0 -1.0 0.0 -1.0 1.0 1.0 1.0
00000000: 0000 803f 0000 80bf 0000 f0b7 0000 80bf
00000010: 0000 803f 0000 80bf 0000 80bf 0000 80bf
00000020: 0000 803f 0000 c0b5 0000 803f 0000 803f
00000030: 0000 80bf 0000 80bf 0000 803f 0000 f0b6
00000040: 0000 80bf 0000 803f 0000 803f 0000 80bf
00000050: 0000 80bf 0000 80bf 0000 803f 0000 803f
00000060: 004c adba 0000 80bf 0000 2036 0000 80bf
00000070: 0000 80bf 0000 80bf 0000 80bf 0000 803f
00000080: 0000 80bf 0000 80bf 0000 80bf 0000 50b6
00000090: 0000 803f 0000 803f 0000 80bf 0000 80bf
000000a0: 0000 803f 0000 18b7 0000 80bf 0000 803f
000000b0: 0000 80bf 0000 803f 0000 00b5 0000 803f
000000c0: 0000 80bf 0000 80bf 0000 803f 0000 803f
000000d0: 0000 80bf 0000 80bf 0000 80bf 0000 80bf
000000e0: 0000 80bf 0000 80bf 0000 80bf 0000 0000
000000f0: 0000 80bf 0000 803f 0000 80bf 0000 80bf
00000100: 0000 803f 0000 80bf 0000 80bf 0000 80bf
00000110: 0000 0000 0000 803f 0000 80bf 0000 80bf
00000120: 0000 80bf 0000 80bf 0000 80bf 0000 0000
00000130: 0000 80bf 0000 803f 0000 803f 0000 803f

m1x_prior f4 [2, 1]
3428.6116 129.6129
00000000: c949 5645 e79c 0143

m1x_posterior f4 [2, 1]
3163.6367 79.09508
00000000: 30ba 4545 ae30 9e42

state_process_posterior_0 f4 [2, 1]
0.0 0.0
00000000: 0000 0000 0000 0000

state_process_prior_0 f4 [2, 1]
0.0 0.0
00000000: 0000 0000 0000 0000

obs_process_0 f4 [2, 1]
0.0 0.0
00000000: 0000 0000 0000 0000

m1x_prev_prior f4 [2, 1]
3279.7278 105.49309
00000000: a5fb 4c45 76fc d242

m1y f4 [2, 1]
3428.6116 129.6129
00000000: c949 5645 e79c 0143

KGain f4 [2, 2]
0.49103028 0.055868234 0.051903818 0.06638897
00000000: 5268 fb3e 17d6 643d 1999 543d f1f6 873d
